saved_models/best_mlp.pth (torch, 64082 bytes, 6 tensors)

l1.weight f4 [100, 47]
0	0x3e044b5b	0.12919371
1	0xbdb07ab5	-0.086171545
2	0x3d103dec	0.035215303
3	0xbdfe5c36	-0.124199316
4	0xbd9833fa	-0.07431789
5	0x3d64f103	0.05589391
6	0xbd9ee126	-0.077577874
7	0x3db218ce	0.08696137
8	0x3d0b50d7	0.03401264
9	0x3c5f0f40	0.013614476
10	0x3db25a72	0.08708657
11	0x3c8c1116	0.017097991
12	0x3e04cef6	0.12969574
13	0xbbb2cc64	-0.005456494
14	0x3d04a6ba	0.032385565
15	0xbd3ca585	-0.04605629
16	0x3d78eb8e	0.060771517
17	0x3ceacf0e	0.028663184
18	0x3e11f35d	0.14252992
19	0xbcf3c058	-0.029754803
20	0xbd2c8644	-0.042120233
21	0xbdbd6b49	-0.09248979
22	0x3df9dcf2	0.12200345
23	0x3e293097	0.16522442
24	0x3d9f0ea1	0.07766462
25	0x3e00bad6	0.12571272
26	0xbb45c65a	-0.0030178041
27	0x3dd07293	0.10178103
28	0x3db3fdce	0.08788644
29	0xbe20d6fb	-0.15707009
30	0x3dd6ee60	0.10494685
31	0x3c880466	0.01660366
32	0xbe151480	-0.14558601
33	0xbe23a1d8	-0.15979707
34	0x3df289d4	0.11842695
35	0x3c9adcaf	0.018904058
36	0x3e5071ca	0.20355907
37	0x3d59a3fa	0.053134896
38	0xbc906f84	-0.0176313
39	0xbe024bee	-0.12724277
40	0xbcc8e06d	-0.024521077
41	0x3da0e75e	0.0785663
42	0xbd6c1f5d	-0.057647098
43	0xbdc217a3	-0.094771646
44	0x3df8d5ac	0.1215013
45	0xbe32befe	-0.1745567
46	0x3dab4a2e	0.08363758
47	0xbd907fc8	-0.07055622
48	0xbbfbe822	-0.0076875845
49	0x3c865907	0.016399873
50	0xbcd48b6f	-0.025945393
51	0x3d55b772	0.0521769
52	0xbe21982e	-0.15780708
53	0xbd99683c	-0.07490584
54	0xbcf2c092	-0.02963284
55	0xbc585ac6	-0.013205236
56	0xbcfd583a	-0.030925859
57	0xbe2115d5	-0.15730985
58	0xbce4a00b	-0.027908346
59	0xbdc406e3	-0.09571626
60	0xbc94d779	-0.018169152
61	0xbd0cccee	-0.034375124
62	0x3e18761c	0.14888805
63	0xbcd91064	-0.026497073
64	0xbdbd95a2	-0.09257056
65	0x3c4e3b07	0.012587315
66	0xbd43b93f	-0.047784086
67	0x3d45333e	0.04814457
68	0x3e4dd991	0.20102526
69	0xbd53fc1d	-0.051754106
70	0x3da021cb	0.078189455
71	0x3d7b2788	0.061316997
72	0xbdb9711f	-0.09054779
73	0x3cd34250	0.025788456
74	0x3dd78b2e	0.10524593
75	0xbe0f8069	-0.14013828
76	0x3e0e7820	0.13913012
77	0xbe28cb17	-0.16483723
78	0x3cf33c10	0.029691726
79	0xbd90d415	-0.070717014
80	0xbda0a93a	-0.078447774
81	0xbdc5f3ad	-0.09665618
82	0xbd5e16c3	-0.054220926
83	0xbda3e351	-0.080023415
84	0x3e238fa0	0.15972757
85	0xbe05bf2e	-0.1306121
86	0xbddadce8	-0.10686666
87	0xbe299827	-0.16561948
88	0xbe1c0217	-0.15235172
89	0xbb5a84e6	-0.0033343374
90	0x3d6403ef	0.055667814
91	0xbd2821ca	-0.04104785
92	0xbd25f2fe	-0.04051494
93	0xbea8e678	-0.32988334
94	0xbe154940	-0.14578724
95	0x3d657840	0.056022882
96	0xbe0333ca	-0.12812725
97	0x3d61aadb	0.05509458
98	0x3d6d710f	0.05796915
99	0x3c1b41e5	0.00947616
100	0x3dba75d1	0.09104503
101	0x3d73d04a	0.05952481
102	0xbcad8eb9	-0.02118622
103	0x3da0c0f7	0.07849305
104	0x3db836f4	0.089948565
105	0xbe44be7a	-0.19213286
106	0xbdf71b2c	-0.120657295
107	0xbdad8051	-0.0847174
108	0xbe4d2dd3	-0.20037012
109	0xbbbab1b4	-0.0056974534
110	0x3d2fb19f	0.042894002
111	0xbbe296e5	-0.0069149607
112	0xbc01cbef	-0.007922157
113	0xbc1e3711	-0.009656684
114	0x3ddf2aa8	0.10896808
115	0xbdb02e02	-0.08602525
116	0xbe076349	-0.13221468
117	0x3e3125e2	0.17299607
118	0xbd98144c	-0.07425746
119	0xbd8a17f7	-0.06742852
120	0xbe10565f	-0.14095448
121	0x3d6174b6	0.055042945
122	0xbd47bd27	-0.048764374
123	0x3d165e49	0.03671101
124	0xbe0edb6b	-0.13950889
125	0xbde230b2	-0.11044444
126	0x3dacc74b	0.084364496
127	0xbdfea4b2	-0.12433757
128	0xbdf95d33	-0.121759795
129	0x3d1c8794	0.038215235
130	0xbc3bcf34	-0.011462975
131	0xbd61c689	-0.05512098
132	0xbdd0bea4	-0.10192612
133	0x3d0a42c5	0.033755083
134	0x3e0eb5f3	0.13936596
135	0x3d358955	0.044320423
136	0x3c85b2f3	0.016320681
137	0xbe326832	-0.1742256
138	0xbcbeda2c	-0.023297392
139	0x3cfe7223	0.031060284
140	0xbee07ce0	-0.43845272
141	0x3e06f8d3	0.13180856
142	0x3da19c07	0.07891088
143	0x3cbb78cd	0.02288475
144	0x3e079524	0.13240486
145	0x3d49c8ca	0.049263753
146	0x3e13dfed	0.1444089
147	0xbdbe662f	-0.09296834
148	0xbda888d7	-0.08229225
149	0x3d8fa701	0.07014275
150	0x3d24164c	0.040060326
151	0x3d3de946	0.046365045
152	0xbe2c6773	-0.16836338
153	0x3da2389e	0.07920955
154	0x3dbdcc74	0.09267512
155	0x3da21141	0.07913447
156	0x3d5b7390	0.053577006
157	0xbd1ccc62	-0.038280852
158	0x3bbb78fe	0.0057212105
159	0xbce011c0	-0.027352214
160	0xbdb9b286	-0.09067254
161	0x3d0c65b8	0.034276694
162	0x3d69d368	0.05708638
163	0xbdecb025	-0.115570344
164	0x3dd2c0e7	0.102906995
165	0xbb3ebe94	-0.0029105293
166	0x3ca8d74c	0.020610474
167	0xbccbc3d4	-0.024873652
168	0x3c83b98f	0.016079692
169	0xbd99fcd2	-0.07518925
170	0xbd72a4d0	-0.05923921
171	0xbdcc87c5	-0.099868335
172	0x3e0b0caa	0.1357905
173	0x3d757cfb	0.059933644
174	0xbd1a13a2	-0.03761638
175	0x3d48ff6b	0.04907171
176	0x3e1dc757	0.15408073
177	0x3d791c25	0.060817856
178	0x3c424809	0.011857995
179	0x3bd9035c	0.006622715
180	0x3caf5e1c	0.02140718
181	0xbbe3c0b0	-0.0069504604
182	0x3da6ea40	0.081501484
183	0x3d68073e	0.05664753
184	0xbd1f5a68	-0.038904577
185	0xbd04f2e2	-0.032458194
186	0xbc896848	-0.016773358
187	0xbdc97fb2	-0.09838809
188	0x3d716d1a	0.058941938
189	0x3d0a6c8b	0.03379492
190	0xbe0f1daa	-0.1397616
191	0xbe1910ec	-0.14947861
192	0xbdc27fa8	-0.09497005
193	0x3ce82f9e	0.028343018
194	0x3d94a021	0.07257105
195	0x3d2f3cec	0.04278271
196	0xbe1a9e03	-0.15099339
197	0xbd6023aa	-0.054721512
198	0xbcc8c79e	-0.024509247
199	0xbd561e9d	-0.05227529
200	0x3dc9781a	0.09837361
201	0xbbf9517e	-0.0076085916
202	0x3d9f11e3	0.077670835
203	0x3e1ccd12	0.15312603
204	0xbd712d80	-0.058881283
205	0x3e0cac8a	0.13737693
206	0x3cd50e67	0.026007844
207	0xbd719578	-0.058980435
208	0x3d2dc879	0.042427514
209	0xbd616611	-0.05502898
210	0x3d1d3c89	0.03838781
211	0x3d70f5c1	0.05882812
212	0xbda91cb7	-0.0825743
213	0xbe000820	-0.125031
214	0xbdb52579	-0.08845038
215	0xbd210ca0	-0.03931868
216	0xbe153662	-0.14571527
217	0x3de997d9	0.11405916
218	0xbd8008df	-0.06251692
219	0x3d0ee794	0.03488882
220	0x3d85e7ed	0.06538377
221	0xbe2cc4ae	-0.16871902
222	0xbe22e54a	-0.1590778
223	0x3d277d50	0.04089099
224	0x3dcf9d49	0.10137422
225	0x3db0668d	0.0861331
226	0xbdba3dc3	-0.09093811
227	0x3df0f691	0.11765779
228	0xbdb50813	-0.08839431
229	0x3dd1cf33	0.10244598
230	0x3d141c79	0.036159966
231	0x3d1b9371	0.037982408
232	0x3df9ced8	0.121976554
233	0x3ba22944	0.004948767
234	0x3ec5f721	0.38665107
235	0xbc902326	-0.017594885
236	0xbdd79b65	-0.10527686
237	0xbc925f59	-0.01786773
238	0xbe0bc72e	-0.136502
239	0x3d41e7c2	0.047340162
240	0x3d4202cd	0.047365952
241	0x3d885648	0.06657082
242	0xbd26fedc	-0.040770397
243	0xbd7b656f	-0.06137603
244	0xbd8aed22	-0.06783511
245	0xbe23c99d	-0.15994878
246	0x3e1ba733	0.152005
247	0xbdbca7b1	-0.09211672
248	0x3da33d4b	0.07970675
249	0xbd84ff4c	-0.064940065
250	0xbd1448a2	-0.03620208
251	0xbb545888	-0.0032401402
252	0xbb8f2711	-0.0043686708
253	0xbdd82ea2	-0.105557695
254	0xbde12784	-0.10993865
255	0x3d8b7f43	0.068113826

l1.bias f4 [100]
0	0xbdbf39c0	-0.09337187
1	0x3bd2b009	0.0064296764
2	0xbd715e9b	-0.058928113
3	0x3cd3066f	0.025759904
4	0xbdad8c5a	-0.084740356
5	0x3d265364	0.04060687
6	0x3bd4c12d	0.006492755
7	0xbd986641	-0.074413784
8	0xbc97ff2b	-0.01855429
9	0x3d433b90	0.047664225
10	0x3d9aa98d	0.075518705
11	0x3e0aa747	0.13540374
12	0x3dfeb5fb	0.12437054
13	0x3e1f94e7	0.15584145
14	0xbdd87f07	-0.105711035
15	0xbd996201	-0.07489396
16	0xbd483157	-0.04887518
17	0xbd99086b	-0.07472309
18	0x3e18f9e2	0.14939073
19	0x3dc92a38	0.09822506
20	0x3dcdc598	0.10047454
21	0x3db70bbf	0.08937787
22	0x3af6916c	0.001881165
23	0x3bd0db62	0.0063738087
24	0xbd93b888	-0.07212931
25	0xbd3bb89b	-0.04583035
26	0x3e531861	0.20614769
27	0x3e25afd1	0.1618035
28	0x3d229fe0	0.03970325
29	0xbc429272	-0.011875736
30	0xbc0cec98	-0.00860133
31	0xbd452b03	-0.048136722
32	0xbdcfba30	-0.10142934
33	0xbc7c5230	-0.015400454
34	0xbc3c27c1	-0.011484087
35	0xbdb75d19	-0.08953304
36	0xbce14533	-0.027498817
37	0x3b443fc9	0.0029945245
38	0x3e43712f	0.19086145
39	0xbc579170	-0.013157234
40	0xbd44cdb9	-0.048047755
41	0xbcfd8c5f	-0.030950723
42	0x3dcb735f	0.09934115
43	0xbc7cce47	-0.01543004
44	0xbaad1211	-0.0013204237
45	0x3d9e4532	0.07728042
46	0x3cd9d751	0.026591929
47	0xbd9998a6	-0.074998185
48	0x3d361346	0.044451974
49	0x3df426cf	0.11921465
50	0x3c069938	0.008215241
51	0x3e39fb25	0.1816221
52	0xbd4b30d0	-0.049607098
53	0x3ddbe4ee	0.10737024
54	0xbdbfa116	-0.093568966
55	0xbd629ceb	-0.05532543
56	0x3d5085d4	0.05090888
57	0x3dfcfe76	0.12353222
58	0xbbd6b5b1	-0.006552421
59	0x3d806e3c	0.062710255
60	0x3d35c201	0.04437447
61	0x3e018d82	0.12651637
62	0x3cf0afcb	0.0293807
63	0x3e23096b	0.15921561
64	0x3dcea185	0.10089401
65	0xbdd36528	-0.103220284
66	0x3e00dd45	0.12584408
67	0x3c8501c9	0.016236203
68	0x3d15e77f	0.036597725
69	0x3e3c0b7a	0.18363753
70	0x3cc8d339	0.024514781
71	0x3e191a01	0.14951326
72	0xbc64d3d9	-0.013966524
73	0xbe085447	-0.133134
74	0x3e1f9c3e	0.15586945
75	0x3e406fde	0.18792674
76	0x3d7cf560	0.061757445
77	0x3e3e836a	0.18604818
78	0x3d4fa693	0.050695967
79	0x3b9311aa	0.0044881897
80	0x3d4c9901	0.049950603
81	0x3e2f680e	0.17129537
82	0x3df18a35	0.11793939
83	0x3dd43518	0.10361689
84	0x3d1cb399	0.038257215
85	0x3dcf1097	0.10110586
86	0x3e2a7428	0.16645873
87	0xbcf6832a	-0.03009184
88	0xbdbfc837	-0.0936436
89	0x3d4e8e80	0.050428867
90	0x3d8f4eb4	0.06997433
91	0xbd885a40	-0.06657839
92	0x3d81d3c9	0.06339223
93	0x3df969ef	0.12178408
94	0xbd749a41	-0.05971742
95	0x3e2266c2	0.15859511
96	0x3de12559	0.109934516
97	0x3e0618dc	0.1309542
98	0x3d8560dd	0.06512616
99	0x3e2d50cf	0.16925357

l2.weight f4 [100, 100]
0	0x3cae966e	0.021311965
1	0xbd0d5320	-0.034503102
2	0x3dd8bf93	0.10583415
3	0xbc9709c5	-0.018437276
4	0x3b4b3f71	0.0031013156
5	0xbd81db25	-0.063406266
6	0x3d0cff46	0.034423135
7	0x3dcd8a01	0.10036088
8	0xbd1741e1	-0.03692806
9	0x39c20de5	0.00037012916
10	0xbd25b0a5	-0.040451664
11	0x3d5ff639	0.054678176
12	0x3d7ba15a	0.061433174
13	0x3de2400e	0.11047374
14	0xbdbd73f2	-0.092506304
15	0x3d812dc3	0.063075565
16	0x3dc51a45	0.09624151
17	0x3d0ac97f	0.033883568
18	0x3df70056	0.12060611
19	0x3b167154	0.0022955732
20	0xbd058e27	-0.03260627
21	0xbd4102dc	-0.047121868
22	0xba8d5132	-0.0010781644
23	0x3db10de5	0.08645228
24	0x3d26d031	0.04072589
25	0xbd620ff8	-0.05519101
26	0xbc1a9d25	-0.00943688
27	0xbc9aaa83	-0.018880134
28	0xbd95a262	-0.07306363
29	0xbe025b25	-0.12730081
30	0x3dcaab68	0.098959744
31	0xbcfae141	-0.030624988
32	0x3dc697b9	0.096969076
33	0x3ddeb4cf	0.1087433
34	0x3de9c2b1	0.114140876
35	0x3daa5621	0.08317209
36	0x3bcbb67b	0.0062168217
37	0xbca452aa	-0.020058949
38	0x3d057f4a	0.032592095
39	0x3d7e0b31	0.06202239
40	0xbdb057d7	-0.08610504
41	0x3dd21f9b	0.102599345
42	0x3d9affcb	0.0756832
43	0x3d430fef	0.047622617
44	0x3dc3cdc8	0.09560734
45	0x3d73bfd5	0.059509117
46	0xbc601312	-0.013676422
47	0x3da54ee7	0.0807169
48	0x3be58b6b	0.0070051453
49	0xbd91ba76	-0.07115643
50	0x3dbc02c0	0.09180212
51	0x3d4d70ff	0.05015659
52	0x3db18063	0.08667066
53	0x3e280868	0.16409457
54	0xbd354aa7	-0.044260647
55	0xbc6d4457	-0.0144816255
56	0x3e142ac0	0.14469433
57	0x3e0ac4dd	0.1355166
58	0x3d3bb823	0.045829903
59	0xbc0ea75d	-0.008706895
60	0xbc22b95e	-0.00993189
61	0x3d8c1a31	0.06840933
62	0x3c18afcc	0.009319257
63	0x3e300c21	0.17192127
64	0xbdd7f763	-0.10545232
65	0x3db4f5be	0.08835934
66	0x3b8a3462	0.0042176703
67	0x3da09edb	0.07842799
68	0x3c0aa4fe	0.008462189
69	0x3cbea4d6	0.02327196
70	0x3daf9569	0.085734196
71	0x3cbae146	0.022812497
72	0x3d777970	0.060418546
73	0xbd5bc66b	-0.053656023
74	0x3df75f81	0.12078763
75	0x3c1bb6f2	0.009504067
76	0x3e096111	0.13415934
77	0xbd3e1607	-0.046407726
78	0x3d9a2d6a	0.07528193
79	0x3e103038	0.14080894
80	0x3db52ab8	0.088460386
81	0xbb8eaaea	-0.0043538706
82	0xbccc82f1	-0.024964781
83	0xbdd4758f	-0.10373985
84	0x3db55a22	0.08855082
85	0x3dc2d533	0.09513321
86	0x3e28b031	0.16473462
87	0xbd27ee78	-0.040998906
88	0xbd75d437	-0.060016837
89	0x3ded0a99	0.11574287
90	0x3d9c4e82	0.07632162
91	0x3e19c2b2	0.15015677
92	0x3d1e1556	0.038594566
93	0xbd3be62c	-0.045873806
94	0xbd272657	-0.040808048
95	0x3e4a0f79	0.19732465
96	0x3db6e36e	0.089300975
97	0xbd802c0d	-0.06258402
98	0x3de0e47b	0.10981079
99	0x3c2c0362	0.010498853
100	0x3e037f06	0.12841424
101	0xbd6f3e5d	-0.058409084
102	0xbd839412	-0.064247265
103	0x3dae3e45	0.08507971
104	0x3d9f1401	0.07767487
105	0x3d1e199c	0.03859864
106	0x3dabd225	0.08389691
107	0x3c8aac3c	0.01692783
108	0xbb418287	-0.0029527263
109	0x3dfe67c5	0.12422136
110	0xb9da0031	-0.00041580343
111	0xbd73564e	-0.05940848
112	0x3db0f5df	0.08640646
113	0x3cf9dc35	0.03050051
114	0x3dc201f8	0.09473032
115	0xbcf16501	-0.029467108
116	0xbde797c7	-0.11308246
117	0x3d05e2cf	0.032687005
118	0xbd3ca903	-0.04605962
119	0x3d4878ce	0.048943333
120	0x3e127b7c	0.14304918
121	0x3dc44530	0.09583509
122	0xbce34eac	-0.027747475
123	0x3d706bf3	0.0586967
124	0x3e086301	0.13319017
125	0x3d677124	0.056504384
126	0x3e0c88e9	0.13724102
127	0xbccd0cef	-0.025030581
128	0x3dcee4bb	0.101022206
129	0x3e30190d	0.17197056
130	0xbdfb5af2	-0.12273206
131	0xbda7373f	-0.08164834
132	0xbd927bf2	-0.07152547
133	0xbc99f3a6	-0.018792938
134	0xbdaa0681	-0.08302022
135	0x3d4a4813	0.04938514
136	0x3d8b8a82	0.06813528
137	0x3dac248a	0.08405407
138	0x3de88926	0.11354284
139	0xbd8c68fd	-0.068559624
140	0x3d048b85	0.03235962
141	0xbce666f4	-0.028125264
142	0x3bae40f1	0.0053178
143	0xbd99ca08	-0.075092375
144	0xbd0ccf60	-0.034377456
145	0x3db6bf21	0.08923174
146	0xbd3d884c	-0.04627256
147	0xbdc0ce1b	-0.094143115
148	0x3d95b109	0.073091574
149	0xbbba3842	-0.005682976
150	0xbd71ce3e	-0.05903458
151	0xbce4db51	-0.02793661
152	0x3b7a5bb6	0.0038201637
153	0xbd5166cf	-0.051123437
154	0x3c59faee	0.013304455
155	0xbd821f19	-0.06353588
156	0x3d4b22c7	0.049593713
157	0x3cf930b2	0.030418728
158	0x3db4fa1b	0.08836766
159	0xbd9ec078	-0.07751554
160	0x3da35c31	0.079765685
161	0x3cc737f7	0.024318678
162	0x3d04f05a	0.03245578
163	0x3d17d326	0.0370666
164	0xbbe0db87	-0.006862107
165	0x3d90fb6e	0.070792064
166	0x3e00ea1b	0.12589304
167	0x3c3f5e1c	0.011680152
168	0x3d1a9d09	0.037747417
169	0xbc13c493	-0.009019035
170	0xbc75d548	-0.0150044635
171	0xbd40665d	-0.04697262
172	0xbdda19e7	-0.10649472
173	0x3bde25b0	0.006779395
174	0xbcc091f4	-0.023507096
175	0x3d436ab8	0.047709197
176	0xbd301ba6	-0.042995118
177	0x3d78e378	0.060763806
178	0xbd69f75b	-0.057120662
179	0x3d40058f	0.0468803
180	0x3cbc2023	0.022964543
181	0xbcaa9bc7	-0.020826234
182	0x3dd784df	0.1052339
183	0x3ca08597	0.01959495
184	0xbceb5525	-0.028727124
185	0xbdce44e8	-0.100717366
186	0xbe228a10	-0.15872979
187	0xbbf4d192	-0.007471272
188	0x3da7d801	0.08195496
189	0x3d8169bc	0.06318995
190	0x3d2cf061	0.04222143
191	0xbcee0b5b	-0.02905815
192	0x3c1df8a5	0.009641801
193	0x3d3f0f3a	0.04664538
194	0x3e021505	0.12703331
195	0xbdb0d177	-0.08633702
196	0x3daa46e8	0.083143055
197	0xbcb24e59	-0.021765875
198	0xbcb42e5d	-0.021994764
199	0xbdd7dde5	-0.1054037
200	0x3d8aca14	0.067768246
201	0x3d1926d5	0.03739055
202	0x3ca4b72e	0.020106878
203	0xbd530433	-0.051517677
204	0x3e2179bd	0.15769096
205	0x3dd36110	0.103212476
206	0xbd83f82f	-0.06443822
207	0xbd0f377d	-0.034965027
208	0x3c2168b3	0.009851622
209	0x3d9d2619	0.07673282
210	0x3b00258b	0.0019553627
211	0xbd88c731	-0.06678618
212	0xbd270e28	-0.040784985
213	0x3ddaf2eb	0.10690864
214	0x3d0d758c	0.03453593
215	0x3d33cff3	0.043899488
216	0x3d8097de	0.06278966
217	0x3ddc6bf0	0.10762775
218	0xbd705436	-0.05867406
219	0xbc24bc71	-0.010054694
220	0x3dae9a9b	0.085255824
221	0x3d746e22	0.059675343
222	0xbbe09828	-0.006854076
223	0xbc865b84	-0.01640106
224	0xbc070722	-0.008241447
225	0x3e15c93f	0.1462755
226	0x3e25872f	0.1616485
227	0x3e24b881	0.16086008
228	0x3e243946	0.16037473
229	0xbb748263	-0.0037309162
230	0xbdbfee60	-0.09371638
231	0x3d034ea9	0.032057438
232	0x3d3a3b3c	0.045466647
233	0xbddbcf89	-0.107329436
234	0xbd513ba4	-0.05108227
235	0x3d1bfdd5	0.03808387
236	0x3d96231c	0.07330915
237	0x3e017b85	0.12644775
238	0x3e189db7	0.14903913
239	0xbdcf6446	-0.101265475
240	0xbccf7617	-0.025324864
241	0xbcbc53c4	-0.022989161
242	0x3d7e3a3d	0.06206726
243	0x3d6ec4ee	0.058293276
244	0xbdc5f74f	-0.09666311
245	0x3dee5e2a	0.11639054
246	0x3bb478fc	0.0055075865
247	0xbddb10b8	-0.10696548
248	0x3c6828be	0.01416987
249	0x3dbf2a01	0.093341835
250	0x3b8c7fad	0.004287681
251	0xbdf0281e	-0.11726402
252	0x3d175963	0.03695048
253	0xbc332043	-0.010932985
254	0x3db0cb82	0.08632566
255	0xbdd4910d	-0.10379229

l2.bias f4 [100]
0	0x3df0fafe	0.11766623
1	0x3de3d5ba	0.111247495
2	0xbc2ba216	-0.010475656
3	0xb9aae56d	-0.00032595862
4	0xbc8e518d	-0.01737287
5	0x3d91792d	0.071031906
6	0x3dc310d8	0.09524697
7	0x3d159303	0.036517154
8	0x3bafedbb	0.005368916
9	0x3cd247b8	0.025668964
10	0x3e0a4c66	0.13505706
11	0x3c66459e	0.014054684
12	0xbcdb2bad	-0.026754225
13	0x3d1971af	0.037461933
14	0x3db76552	0.08954872
15	0x3dc810fb	0.09768864
16	0xbd24463a	-0.040106036
17	0x3d74cd9b	0.059766393
18	0x3d8616ae	0.065472946
19	0x3d432a98	0.047648042
20	0x3e1a526b	0.15070502
21	0xbbbfcf7f	-0.005853593
22	0x3e088c41	0.13334753
23	0x3d8af252	0.067845
24	0x3dda863f	0.10670137
25	0x3d622628	0.05521217
26	0x3cb48b6b	0.022039136
27	0xbd07cbf4	-0.03315349
28	0xbc87263c	-0.016497724
29	0xbcc8181d	-0.02442556
30	0xbcbccbb9	-0.023046361
31	0x3de8a503	0.113595985
32	0x3c0a945e	0.008458225
33	0xbdf52d75	-0.11971561
34	0x3ca5c9e3	0.020237869
35	0x3d1b8632	0.037969775
36	0x3d1e256a	0.0386099
37	0xbc2d8eed	-0.010593158
38	0x3d643cea	0.055722155
39	0x3d5f145e	0.054462783
40	0xbd4b2bb6	-0.049602233
41	0x3d5a4f60	0.053298354
42	0xbd51c7d4	-0.05121596
43	0xbd23cb15	-0.039988596
44	0x3d90a196	0.0706207
45	0x3d93dcd6	0.072198555
46	0x3c5cd0d8	0.013477527
47	0x3de14c49	0.11000878
48	0xbda145d2	-0.07874645
49	0x3dc4aa04	0.096027404
50	0x3da94953	0.082659386
51	0x3ddaf470	0.10691154
52	0x3e111878	0.1416949
53	0x3d805ad3	0.06267323
54	0xbd88cc7c	-0.06679627
55	0x3d07cb42	0.033152826
56	0x3d25d706	0.040488265
57	0x3c9c51d4	0.019081987
58	0xbdeafd6f	-0.1147412
59	0x3d0bb0df	0.034104224
60	0x3d80898a	0.062762335
61	0x3e0bf262	0.1366668
62	0x3ccf50ff	0.025307177
63	0xbb92e77d	-0.004483162
64	0xbc952656	-0.018206757
65	0x3d1e9232	0.03871364
66	0xba6ea5df	-0.0009103696
67	0xbcb0b539	-0.021570789
68	0x3d8e21f3	0.06940069
69	0xbd90e9e4	-0.07075861
70	0x3d251b75	0.04030939
71	0x3d79915c	0.06092964
72	0x3d3260cf	0.043549355
73	0x3d8a00cb	0.067384325
74	0xbd18179c	-0.03713189
75	0xbd89fc70	-0.06737602
76	0x3e061d8b	0.13097207
77	0xbd88159e	-0.06644748
78	0xbdc813f6	-0.09769432
79	0x3dd6378b	0.10459813
80	0xbd67fd72	-0.05663819
81	0xbd7aa5f9	-0.06119344
82	0x3b96992c	0.004595896
83	0xbd2efc2e	-0.042720966
84	0x3da9ee5d	0.08297417
85	0x3d8f54fa	0.0699863
86	0x3d216b78	0.03940913
87	0x3dcf499d	0.101214625
88	0xbc294473	-0.010331261
89	0xbc886145	-0.016647944
90	0x3decc607	0.11561208
91	0x3d821144	0.063509494
92	0xbd031a86	-0.032007717
93	0x3e07e4dd	0.13270898
94	0xbcf73453	-0.030176317
95	0xbd35fd06	-0.044430755
96	0x3d9d6ff2	0.076873675
97	0x3cb0d4ce	0.021585848
98	0xbc3f0044	-0.011657778
99	0x3df70d4e	0.120630845

l3.weight f4 [5, 100]
0	0xbde45de1	-0.111507185
1	0x3d3b1b6d	0.045680452
2	0xbe1c883d	-0.15286346
3	0xbe050000	-0.12988281
4	0xbe807b8c	-0.2509426
5	0xbcd4568c	-0.025920175
6	0x3841fe80	4.6251807e-05
7	0x3d116db9	0.03550503
8	0xbdb438f5	-0.08799926
9	0xbe42cf96	-0.190245
10	0xbe24005d	-0.16015764
11	0xbd0d7dd3	-0.034543823
12	0xbe083411	-0.13301112
13	0xbda9bb53	-0.082876824
14	0x3cbeb80e	0.023281123
15	0x3cd4fca7	0.02599938
16	0x3c65064f	0.013978555
17	0xbd98250f	-0.07428943
18	0xbd263617	-0.040578928
19	0x3ceb1ec4	0.028701194
20	0xbd121c7c	-0.035671696
21	0xbdd15b5d	-0.10222504
22	0xbdbf8bc9	-0.09352834
23	0xbc98dd90	-0.018660337
24	0xbd6bb516	-0.057545744
25	0x3ce7eefb	0.028312197
26	0x3d8b2031	0.067932494
27	0xbd3735a4	-0.04472889
28	0x3ce2b530	0.027674288
29	0xbe3a670e	-0.18203375
30	0xbbe156ad	-0.0068767876
31	0xbd90131c	-0.07034895
32	0x38b24c90	8.501962e-05
33	0xbd364879	-0.04450271
34	0xbe182f62	-0.14861825
35	0xbda12f2c	-0.078703254
36	0xbda01ea0	-0.07818341
37	0xbd6be371	-0.057589952
38	0xbde84bb3	-0.113425635
39	0xbd49feff	-0.04931545
40	0xbe340ba6	-0.17582569
41	0xbdda605e	-0.10662912
42	0xbe01abae	-0.12663147
43	0x3c8e72f8	0.017388806
44	0xbcf6203f	-0.030044673
45	0xbd11533f	-0.03547978
46	0x3c8967a0	0.016773045
47	0xbe1dabfc	-0.15397638
48	0xbc5bd7af	-0.013418122
49	0xbe35af42	-0.17742637
50	0xbe68c505	-0.22731407
51	0x3d0318c9	0.03200606
52	0xbe3b0d8f	-0.18266891
53	0x3a47301d	0.0007598417
54	0xbb8e842c	-0.004349252
55	0xbae2b9e5	-0.0017297833
56	0xbb55aabe	-0.003260299
57	0xbd6f058e	-0.058354907
58	0x3d29af50	0.041426957
59	0x3caec55f	0.021334348
60	0xbcdfa14b	-0.02729859
61	0xbdadf1a4	-0.08493355
62	0x3ce8c954	0.028416313
63	0xbb31ad45	-0.0027111333
64	0xbd74f448	-0.059803277
65	0xbe14e5ec	-0.14540833
66	0x3d38e865	0.045143504
67	0xbd43ee7b	-0.047834855
68	0xbdead528	-0.114664376
69	0xbdab51ff	-0.08365249
70	0xbc482942	-0.012216868
71	0x3d114b07	0.035471942
72	0xbda4cc1c	-0.08046743
73	0xbdd9947a	-0.10624023
74	0x397c2324	0.00024045684
75	0x3c8fed40	0.017569184
76	0xbd25090b	-0.040291827
77	0x3c08d26b	0.008350949
78	0x3d1ee612	0.03879363
79	0xbc331318	-0.010929845
80	0x3d01a177	0.031648125
81	0xbd4a21b7	-0.04934856
82	0xbdb5c509	-0.08875472
83	0x3d803cef	0.06261622
84	0xbd9c81ad	-0.07641921
85	0x3d98550d	0.07438097
86	0xbe142e8a	-0.14470878
87	0xbe13f197	-0.14447628
88	0xbdeafe62	-0.11474301
89	0x3c86e251	0.016465338
90	0xbd404f61	-0.0469507
91	0xbcf2a2b0	-0.029618591
92	0xbdf322dc	-0.11871883
93	0xbd861f0c	-0.065488905
94	0xbd952fe5	-0.07284526
95	0xbdc3e5f6	-0.09565346
96	0x3ca50dbe	0.020148154
97	0xbe23dbb8	-0.16001785
98	0xbdc530a7	-0.0962842
99	0x3d08f5dc	0.033437595
100	0x3d314b23	0.043284547
101	0xbdbb8ef1	-0.09158123
102	0xbe13c885	-0.14431961
103	0x3e19a120	0.1500287
104	0x3e165009	0.14678968
105	0xbcd27ce7	-0.025694324
106	0x3e014891	0.12625338
107	0xbe0dc8e1	-0.1384616
108	0xba983fd1	-0.0011615698
109	0xbdd2026b	-0.102543674
110	0x3ccfb4c6	0.025354754
111	0xbe0dc77d	-0.1384563
112	0xbe000b2f	-0.12504266
113	0x3d8c48eb	0.068498455
114	0x39f7db1c	0.0004727476
115	0x3e17459f	0.14772652
116	0x3de8b128	0.11361915
117	0x3e0eb701	0.13936998
118	0x3d759abd	0.059962023
119	0x3e193233	0.14960556
120	0x3d1e6112	0.038666792
121	0x3d82291a	0.06355496
122	0xbbf35b5f	-0.007426664
123	0x3e365db9	0.1780919
124	0x3d7224ac	0.059117004
125	0xbd8eb892	-0.06968798
126	0x3c88cc66	0.016699027
127	0xbdc51392	-0.09622873
128	0xbc76daa0	-0.015066773
129	0x3e428835	0.18997271
130	0xbd8c26f9	-0.06843371
131	0xbb230aa6	-0.0024878173
132	0x3e2467b8	0.1605519
133	0xbcafa573	-0.021441197
134	0xbddfa648	-0.109203875
135	0xbd27ce7b	-0.0409684
136	0xbc509927	-0.012731827
137	0xbd026841	-0.031837706
138	0x3e043f8b	0.12914865
139	0x3e023ec6	0.12719259
140	0xbdd7e771	-0.10542191
141	0x3e064a0b	0.13114183
142	0xbd53a587	-0.05167153
143	0x3dec1372	0.115271464
144	0x3d9b0345	0.07568983
145	0xbd6afdf4	-0.057371095
146	0x3dcdabef	0.10042559
147	0xbc90d0c6	-0.017677676
148	0xbd7daa8d	-0.061930228
149	0x3c3d48ff	0.011553048
150	0x3b3259ca	0.0027214163
151	0x3e14082e	0.14456245
152	0x3c2ec945	0.010668104
153	0xbdc204c4	-0.09473565
154	0xbd947177	-0.07248204
155	0x3d76a981	0.060220245
156	0x3dc66060	0.09686351
157	0xbe04ab5a	-0.1295599
158	0x3cbf913e	0.023384687
159	0x3de1c4c8	0.11023861
160	0x3d404da3	0.04694904
161	0x3dc933d1	0.09824336
162	0xba82b336	-0.0009971622
163	0xbc7afdb2	-0.015319275
164	0x3d46f232	0.04857082
165	0x3de01d42	0.109430805
166	0xbc8f9074	-0.017524935
167	0x3c8f06e2	0.017459337
168	0x3db24c66	0.08705978
169	0xbdd2d20f	-0.10293972
170	0x3dd3f9d6	0.10350387
171	0x3e190888	0.1494466
172	0xbd625dae	-0.05526512
173	0x3d215ea2	0.03939689
174	0xbd1f50f1	-0.03889555
175	0xbe000fea	-0.1250607
176	0x3e402cb8	0.18767059
177	0xbe1fb619	-0.15596808
178	0xbda129f8	-0.07869333
179	0x3dcdf96a	0.100573376
180	0x3e6eef6c	0.2333352
181	0xbd97929e	-0.07401012
182	0x3dffeab0	0.12495935
183	0xbd314cb3	-0.043286037
184	0xbd710d7e	-0.058850758
185	0xbd81a9bc	-0.063312024
186	0x3d9d2e0e	0.076748
187	0x3d21ea52	0.039530106
188	0x3e05004c	0.12988394
189	0xbdb69190	-0.089144826
190	0x3e18a7bc	0.14907736
191	0xbdd7f68b	-0.10545071
192	0x3df40282	0.11914541
193	0x3decc549	0.11561067
194	0x3d625ee1	0.055266265
195	0x3e30a1d0	0.17249227
196	0xbc74bbf6	-0.0149373915
197	0x3dcc5b85	0.099783935
198	0x3ceaeb7a	0.028676737
199	0x3e0d8e4f	0.13823818
200	0xbbd8649f	-0.006603792
201	0x3e006206	0.12537393
202	0x3e29f127	0.16595899
203	0xbdb1906b	-0.08670124
204	0x3d699ae1	0.05703247
205	0x3e0ce322	0.1375852
206	0xbd74025d	-0.059572566
207	0x3e409cd8	0.18809831
208	0x3d39948a	0.045307674
209	0x3dbce6bb	0.09223696
210	0x3d975ae3	0.07390382
211	0x3e2c53de	0.16828868
212	0x3dde67c6	0.10859637
213	0xbdea0d57	-0.114283256
214	0x3e0db97b	0.13840286
215	0x3d1ba77c	0.038001522
216	0x3d803ca4	0.06261566
217	0xbd9783d5	-0.07398192
218	0xbd040a40	-0.032236338
219	0xbe1d7611	-0.1537707
220	0x3d99c13f	0.07507562
221	0x3dd2ca5e	0.10292505
222	0x3e143e27	0.14476834
223	0xbe10a848	-0.14126694
224	0x3dd6b08f	0.10482895
225	0x3cb1a8d0	0.021686941
226	0x3db40059	0.08789129
227	0x3e134535	0.14381869
228	0xbde37f8f	-0.11108314
229	0xbda740f4	-0.08166686
230	0xbcd4656f	-0.025927274
231	0x3d4b3bf0	0.049617708
232	0xbc11d2f4	-0.008900393
233	0xbdd0f34e	-0.10202657
234	0x3e0af7ed	0.13571139
235	0x3e0d09ba	0.13773242
236	0xbd260f23	-0.04054178
237	0x3d4c6af2	0.04990668
238	0x3d4422d4	0.047884777
239	0xbdf1b754	-0.11802545
240	0x3deedfdc	0.116637915
241	0xbda43f2d	-0.08019862
242	0x3ccd68fe	0.025074478
243	0xbd3ee331	-0.046603385
244	0x3cf8376c	0.030299865
245	0xbd9a2a19	-0.07527561
246	0xbc1153fc	-0.008870121
247	0x3d4b4d95	0.049634535
248	0xbbc046b7	-0.005867805
249	0x3cc5541d	0.02408796
250	0x3d5060ef	0.050873693
251	0xbe24b208	-0.16083539
252	0x3d86aa44	0.06575444
253	0x3d879ea1	0.06622053
254	0xbde21c49	-0.11040551
255	0xbc439636	-0.011937669

l3.bias f4 [5]
0	0xbbbb2a0a	-0.0057117986
1	0x3de55ed7	0.1119973
2	0xbb3b9d05	-0.0028627526
3	0x3d1d5cce	0.038418584
4	0x3ce7aaf5	0.02827976
