saved_models/final_mlp.pth (torch, 69902 bytes, 14 tensors)

l1.weight f4 [100, 47]
0.02153401 0.056815654 -0.12863103 0.08794181 -0.028896563 -0.007993622 -0.072875276 0.065758705
0.15590149 -0.109966196 0.21661843 0.040063977 0.10483511 -0.045225076 0.12558521 0.033077206
0.21713784 0.062112518 -0.009443927 0.044848263 -0.0011948582 0.061437543 -0.011814671 0.12638219
0.014789495 -0.11312018 -0.06866034 -0.15327922 -0.032714467 -0.18213391 0.15362455 -0.15392117
0.073870696 -0.046924792 -0.09755679 0.055456698 0.054108042 0.10218689 -0.026062218 -0.09292846
-0.008200267 -0.04716097 -0.00843566 0.11752323 0.08431865 -0.022680838 0.22062764 -0.008694326
0.040644698 -0.060693767 -0.14050107 -0.07138879 -0.0693173 0.021203961 0.07648004 0.0004499908
-0.0021413448 -0.12746286 0.13347822 -0.20214356 0.0043513435 -0.081570506 0.060027387 -0.049510114
0.02500342 -0.08828817 0.057493407 -0.07967919 -0.09022413 -0.09106787 0.12087823 0.03258842
0.24730414 0.005889138 -0.03276875 0.0037546512 -0.011447131 0.12017828 0.037898634 0.10458236
0.025341945 -0.00434905 0.16476808 -0.05570072 0.113236696 -0.0732652 0.0658149 -0.13074106
0.024528164 0.030014273 0.010085057 -0.03718956 -0.047530115 0.4958864 -0.08226995 -0.06315549
0.17108022 -0.009446616 -0.112009324 -0.11650435 -0.08808658 0.06129301 -0.075664535 -0.114190474
0.06783714 0.011440878 -0.11486854 -0.095485285 -0.014946831 -0.12557042 0.20495497 0.067383975
-0.009008595 -0.07268227 -0.14596161 -0.029277246 -0.0031837272 -0.04289401 -0.04083687 0.03451121
0.1489564 0.047898095 0.10188264 -0.014037059 -0.010875017 0.00393985 -0.067994215 -0.028870404
0.20580482 0.04914779 0.12998971 0.054085895 -0.090584904 0.12067636 -0.020938355 -0.021043552
-0.12651 -0.107989095 0.041733533 -0.062151484 0.44289607 -0.101101905 0.13021362 -0.114201404
-0.0013785907 0.009488838 0.093120754 0.13915648 0.16359611 -0.09676313 0.032193728 -0.050590627
-0.010063882 -0.15183537 0.10354724 -0.09879871 0.019091098 -0.02808995 0.029174823 -0.05471077
0.21002613 0.08780519 -0.0065685385 -0.16804767 0.09697454 0.026985805 -0.0028643978 0.19620536
0.0763886 -0.019480426 -0.023670558 0.042779375 0.16849835 -0.03897619 -0.053992484 -0.0055218954
-0.050035886 0.13741194 0.07760676 -0.13633686 0.039344 0.08095501 0.116882846 -0.050542563
0.063329086 0.07665397 0.042632435 -0.019455688 0.024748873 0.06465085 0.015810208 -0.021919372
0.12853417 0.18911815 0.03913155 -0.054027442 0.042602696 0.060165882 -0.03197053 0.069775864
-0.19274315 -0.06005498 0.21081892 0.12358315 -0.02772307 -0.10534522 0.030510888 -0.07996266
-0.04609492 0.06091792 0.08015319 -0.005916332 -0.05991523 -0.048509974 0.037811894 0.1527197
0.036399208 -0.040405087 0.075577475 0.050770752 -0.09035922 0.08405482 -0.0676982 -0.0123312995
-0.035822857 0.09291925 0.11404421 0.03757918 -0.11698382 -0.14583725 -0.122496024 0.10303938
0.07003063 -0.016414091 0.3957372 0.09906782 0.080949254 -0.05837315 -0.07305765 -0.07254089
0.018546484 -0.066048235 -0.035961967 -0.025034145 0.016865123 -0.066599965 -0.11093169 0.057516836
-0.063645884 0.05621653 -0.06959305 -0.16615593 -0.055471893 -0.031221911 -0.045689423 -0.11018431
00000000: 1868 b03c 88b7 683d dab7 03be d61a b43d
00000010: 7cb8 ecbc aef7 02bc a23f 95bd 80ac 863d
00000020: a4a4 1f3e f535 e1bd 39d1 5d3e 201a 243d
00000030: cab3 d63d ee3d 39bd 6999 003e f77b 073d
00000040: 6259 5e3e b269 7e3d b3ba 1abc d0b2 373d
00000050: ca9c 9cba efa5 7b3d 5292 41bc 556a 013e
00000060: a34f 723c 8eab e7bd cb9d 8cbd 3af5 1cbe
00000070: 9bff 05bd 5081 3abe c14f 1d3e 839d 1dbe
00000080: 8549 973d 3634 40bd dbcb c7bd 9026 633d
00000090: 65a0 5d3d 5c47 d13d 6f80 d5bc 4751 bebd
000000a0: 6a5a 06bc dc2b 41bd b935 0abc 05b0 f03d
000000b0: 42af ac3d 2acd b9bc 36ec 613e a572 0ebc
000000c0: 0e7b 263d 079a 78bd 83df 0fbe 4934 92bd
000000d0: 3bf6 8dbd eeb3 ad3c 91a1 9c3d beec eb39
000000e0: ce55 0cbb a085 02be 84ae 083e b9fe 4ebe
000000f0: b795 8e3b 700e a7bd 47df 753d 1ecb 4abd
00000100: f9d3 cc3c 6ed0 b4bd 357e 6b3d d82e a3bd
00000110: 6ec7 b8bd cb81 babd 018f f73d 6f7b 053d
00000120: 4c3d 7d3e acf9 c03b 8638 06bd 9810 763b
00000130: bf8c 3bbc 0820 f63d 993b 1b3d 472f d63d
00000140: e999 cf3c 7a82 8ebb f7b8 283e 7026 64bd
00000150: a4e8 e73d 110c 96bd f6c9 863d fce0 05be
00000160: 4aef c83c 7ee0 f53c cb3b 253c 1454 18bd
00000170: f0ae 42bd d2e4 fd3e 267d a8bd aa57 81bd
00000180: a72f 2f3e fbc5 1abc 2565 e5bd d599 eebd
00000190: bd66 b4bd 610e 7b3d 02f6 9abd b2dc e9bd
000001a0: 33ee 8a3d 8572 3b3c 3240 ebbd ca8d c3bd
000001b0: 8ee3 74bc 8895 00be b7df 513e 9c00 8a3d
000001c0: c998 13bc 71da 94bd f676 15be d6d6 efbc
000001d0: 14a6 50bb a1b1 2fbd 9044 27bd a05b 0d3d
000001e0: 0788 183e cb30 443d d8a7 d03d b1fb 65bc
000001f0: 212d 32bc db19 813b 8d40 8bbd a081 ecbc
00000200: 80be 523e 314f 493d 061c 053e 2c89 5d3d
00000210: 9484 b9bd 2b25 f73d ea86 abbc 8763 acbc
00000220: d68b 01be 6329 ddbd c8f0 2a3d 8e92 7ebd
00000230: 46c3 e23e 840e cfbd b856 053e 6de2 e9bd
00000240: d4b1 b4ba 1277 1b3c 18b6 be3d 097f 0e3e
00000250: bd85 273e bf2b c6bd 92dd 033d 1e38 4fbd
00000260: fbe2 24bc bb7a 1bbe 9310 d43d fa56 cabd
00000270: ef64 9c3c e51c e6bc 0a00 ef3c 6618 60bd
00000280: 1711 573e 35d3 b33d e53c d7bb b014 2cbe
00000290: 969a c63d 5611 dd3c 9fb8 3bbb 0fea 483e
000002a0: a071 9c3d 6a95 9fbc c2e8 c1bc 6d39 2f3d
000002b0: d58a 2c3e 7fa5 1fbd 3927 5dbd 04f1 b4bb
000002c0: 6ef2 4cbd b7b5 0c3e 4bf0 9e3d e49b 0bbe
000002d0: 2d27 213d becb a53d 4660 ef3d b805 4fbd
000002e0: aeb2 813d c2fc 9c3d 599f 2e3d 8961 9fbc
000002f0: 26be ca3c aa67 843d 6984 813c 4190 b3bc
00000300: 769e 033e 30a8 413e 6748 203d e14b 5dbd
00000310: 2a80 2e3d 8070 763d 88f3 02bd a6e6 8e3d
00000320: 765e 45be 36fc 75bd eae0 573e 2a19 fd3d
00000330: 7e1b e3bc 3cbf d7bd f8f1 f93c 77c3 a3bd
00000340: 07ce 3cbd 1285 793d 5b27 a43d cadd c1bb
00000350: ac69 75bd 65b2 46bd a5e0 1a3d 8e62 1c3e
00000360: 5617 153d ce7f 25bd 5dc8 9a3d fef4 4f3d
00000370: 410e b9bd ef24 ac3d 5ba5 8abd 3809 4abc
00000380: fdba 12bd 734c be3d 0390 e93d a0ec 193d
00000390: 3795 efbd 5c56 15be 32df fabd 4f06 d33d
000003a0: 386c 8f3d d876 86bc 119e ca3e 12e4 ca3d
000003b0: b9c8 a53d af18 6fbd 409f 95bd 5190 94bd
000003c0: ccee 973c 4c44 87bd db4c 13bd 6814 cdbc
000003d0: ba28 8a3c 9065 88bd 2730 e3bd c696 6b3d
000003e0: c658 82bd 4e43 663d cd86 8ebd c824 2abe
000003f0: 7f36 63bd 18c5 ffbc d524 3bbd 50a8 e1bd

l1.bias f4 [100]
0.085602045 0.07093273 0.030590396 0.043589354 0.1118832 0.017590454 0.062089603 0.18296601
-0.013509834 -0.034677215 0.09422475 0.07775448 -0.1387446 0.015774598 -0.12306394 -0.054100208
0.07556726 0.12733614 -0.060222235 0.10981347 0.1514922 0.13886306 -0.10038142 -0.011611983
-0.00026818473 0.11317865 -0.033147346 -0.00042933074 0.06471567 -0.06704943 -0.085278444 0.12087672
0.00082958804 0.071054965 -0.105203174 -0.020259798 0.1461059 -0.0019494047 0.04160667 -0.15952197
0.12134689 -0.06905441 -0.026904 -0.05830002 -0.060612366 -0.1227435 -0.12302282 -0.01856467
-0.06537515 0.1144379 -0.001894147 0.10754787 -0.02807479 0.054447226 0.15063207 -0.12195538
-0.09017508 0.115533516 -0.01828911 -0.017044408 0.014324599 -0.09838411 0.024129292 -0.03812584
0.04231438 0.003727673 -0.03196268 -0.057523895 0.043963987 0.079815164 -0.20061962 -0.13809082
-0.14479892 0.050522123 0.12153322 -0.11892392 0.050739877 0.029283492 -0.070135 0.01481518
0.10566139 0.16475436 0.066236876 -0.037366405 -0.0843369 -0.032241337 0.04554669 -0.005618184
0.13046344 -0.10981997 0.020690225 -0.04952654 0.0051022563 0.13623556 0.00037154584 -0.02525833
-0.0682487 -0.14877066 -0.13555238 0.056871943
00000000: 2050 af3d 2e45 913d b698 fa3c c08a 323d
00000010: 0523 e53d db19 903c ab51 7e3d 715b 3b3e
00000020: 5a58 5dbc b209 0ebd e8f8 c03d be3d 9f3d
00000030: 1013 0ebe bb39 813c f208 fcbd 2e98 5dbd
00000040: 02c3 9a3d 6864 023e 97ab 76bd e2e5 e03d
00000050: c520 1b3e 1e32 0e3e c694 cdbd 3040 3ebc
00000060: 259b 8cb9 35ca e73d 83c5 07bd cc17 e1b9
00000070: a689 843d 3651 89bd 77a6 aebd 378e f73d
00000080: b678 593a 4485 913d c374 d7bd e0f7 a5bc
00000090: c99c 153e 2b83 ffba c16b 2a3d ba59 23be
000000a0: b884 f83d 666c 8dbd c765 dcbc 00cc 6ebd
000000b0: ac44 78bd f260 fbbd 63f3 fbbd ef14 98bc
000000c0: 68e3 85bd 6b5e ea3d 0745 f8ba 0f42 dc3d
000000d0: 1afd e5bc 0e04 5f3d 4b3f 1a3e bec3 f9bd
000000e0: b6ad b8bd d69c ec3d 0bd3 95bc b7a0 8bbc
000000f0: b9b1 6a3c 9c7d c9bd cbaa c53c d729 1cbd
00000100: d851 2d3d fa4b 743b 4deb 02bd 2d9e 6bbd
00000110: 9513 343d 2276 a33d 3b6f 4dbe ae67 0dbe
00000120: 2b46 14be 49f0 4e3d 69e6 f83d 628e f3bd
00000130: 9ed4 4f3d efe3 ef3c f0a2 8fbd 5ebb 723c
00000140: 0065 d83d 5eb5 283e 33a7 873d 840d 19bd
00000150: d3b8 acbd 7e0f 04bd 2a8f 3a3d be18 b8bb
00000160: 3598 053e 4be9 e0bd 8c7e a93c 57dc 4abd
00000170: d430 a73b 5681 0b3e 0acc c239 8fea cebc
00000180: f9c5 8bbd 5657 18be 3ece 0abe 8ef2 683d

bn1.weight f4 [100]
1.0310024 1.0386643 1.0212733 0.9555 1.091663 1.0731033 1.0175407 1.0192293
1.0764712 1.0663011 0.96059066 0.949802 0.97222203 0.9344138 0.91693074 0.89054716
1.1046824 1.0939091 0.912747 1.034492 0.89782816 1.0375558 1.0029145 1.0958227
0.9657163 0.8835994 0.9160763 1.026417 1.0253109 0.9458724 0.8948909 0.9520563
0.9873679 1.1321071 1.055916 1.0195299 1.0869267 0.961482 0.95327556 1.0085559
1.0254041 1.0177591 0.9889416 0.92074114 0.98334634 1.0303764 0.97114867 0.96170366
0.8982721 1.0627991 0.9162673 1.0418316 0.9868799 0.868026 1.0265371 0.9728046
1.0317109 0.9055912 1.0140295 0.9677532 0.9623298 1.002612 1.0726795 1.0165015
1.009515 0.94629717 0.89078707 0.94674236 0.8962621 1.0108776 0.9923632 1.0442935
1.0310766 0.95226747 1.0320228 1.0690762 1.0825096 0.8303649 0.9373206 0.9429335
1.0030284 1.0312334 0.9733335 1.0462056 0.94773483 1.024101 1.0834852 0.9664091
1.0410306 1.0275868 1.0912213 1.0243478 1.114026 1.032728 1.0312582 0.8631962
0.99740237 0.90745145 0.96796 0.9874016
00000000: e3f7 833f f4f2 843f 15b9 823f a69b 743f
00000010: 9dbb 8b3f 735b 893f c63e 823f 1b76 823f
00000020: cfc9 893f 8e7c 883f 45e9 753f 3926 733f
00000030: 8be3 783f be35 6f3f f9bb 6a3f e6fa 633f
00000040: 3c66 8d3f 3705 8c3f caa9 693f 3c6a 843f
00000050: 11d8 653f a1ce 843f 815f 803f eb43 8c3f
00000060: 2f39 773f 9233 623f fa83 6a3f a261 833f
00000070: 633d 833f b224 723f 9217 653f f6b9 733f
00000080: 25c4 7c3f e3e8 903f 4128 873f f57f 823f
00000090: 6a20 8b3f af23 763f de09 743f 5c18 813f
000000a0: 7140 833f ee45 823f 472b 7d3f b1b5 6b3f
000000b0: 96bc 7b3f 60e3 833f 339d 783f 3632 763f
000000c0: 29f5 653f cd09 883f 7e90 6a3f bd5a 853f
000000d0: 29a4 7c3f f436 5e3f 9165 833f b909 793f
000000e0: 1a0f 843f d3d4 673f b8cb 813f acbe 773f
000000f0: 3f5b 763f 9755 803f 904d 893f b91c 823f
00000100: ca37 813f 8840 723f 9f0a 643f b55d 723f
00000110: 6f71 653f 7064 813f 840b 7e3f 69ab 853f
00000120: 51fa 833f cdc7 733f 5319 843f 7dd7 883f
00000130: ad8f 8a3f cb92 543f 3ef4 6f3f 1764 713f
00000140: 3c63 803f 75ff 833f 622c 793f 11ea 853f
00000150: c09e 723f be15 833f a5af 8a3f 9666 773f
00000160: 7e40 853f f787 833f 24ad 8b3f d41d 833f
00000170: 6798 8e3f 6e30 843f 4500 843f 6dfa 5c3f
00000180: c355 7f3f bd4e 683f 3acc 773f 5ac6 7c3f

bn1.bias f4 [100]
0.07570968 0.00112315 0.0006122657 -0.008676575 0.04791719 0.055443972 -0.0018601418 0.043336283
0.08076578 0.04132628 -0.008498929 -0.060503937 0.019716438 -0.065916 -0.08933887 -0.022533717
0.057939805 0.09281404 -0.09832668 0.0003547914 -0.074080385 0.026846591 0.016503386 0.020821793
-0.02421909 -0.080985166 -0.110284284 0.080372 0.053993545 0.012539064 -0.11087707 -0.059776124
-0.034625936 0.17832926 0.06006488 0.0089734495 0.0070955153 -0.077215835 -0.049176544 -0.018806202
-0.020199407 -0.0049466076 -0.014549171 -0.09104007 0.065367125 0.08534166 0.010835554 0.023603117
-0.10053854 0.0466974 -0.08358554 -0.042197317 -0.04756629 -0.13311762 0.021453045 -0.04945558
-0.011786298 -0.051902376 -0.022209706 0.0074325437 -0.003975177 0.045815665 0.08846489 -0.047914624
-0.018824477 -0.07280846 -0.07729303 -0.045696266 -0.10827967 0.055310424 -0.0062189945 0.004878951
0.010107098 -0.022324199 0.034199778 0.016404029 0.06779768 -0.12067297 -0.05474869 -0.04402028
-0.019864043 -0.038000684 -0.0059785196 0.042596996 -0.04964229 0.022261418 0.066875935 0.051171336
0.037359484 -0.040130846 0.19435686 0.0041748965 0.11693412 0.023833867 0.06531438 -0.17429073
-0.0012475495 -0.07031389 -0.051875856 -0.028143413
00000000: ad0d 9b3d a936 933a 7580 203a 3128 0ebc
00000010: d144 443d 3819 633d 00d0 f3ba 6381 313d
00000020: 8768 a53d bf45 293d 183f 0bbc fad2 77bd
00000030: 5e84 a13c f8fe 86bd 4cf7 b6bd a198 b8bc
00000040: 4a52 6d3d 4a15 be3d 805f c9bd 4c03 ba39
00000050: 75b7 97bd 62ed db3c 1c32 873c 7792 aa3c
00000060: 1d67 c6bc 8ddb a5bd badc e1bd 139a a43d
00000070: 5628 5d3d a570 4d3c 8413 e3bd cfd7 74bd
00000080: edd3 0dbd f29b 363e 9706 763d 6005 133c
00000090: 7f81 e83b 5623 9ebd 586d 49bd 770f 9abc
000000a0: 3a79 a5bc 2717 a2bb a55f 6ebc 3773 babd
000000b0: 33df 853d 9cc7 ae3d 9c87 313c 535b c13c
000000c0: 26e7 cdbd c645 3f3d e52e abbd 18d7 2cbd
000000d0: dfd4 42bd fc4f 08be 4cbe af3c ef91 4abd
000000e0: 511b 41bc 9697 54bd 21f1 b5bc b28c f33b
000000f0: 3442 82bb 35a9 3b3d 152d b53d 2042 44bd
00000100: ca35 9abc 9a1c 95bd cf4b 9ebd 022c 3bbd
00000110: bbc1 ddbd 2f8d 623d b5c8 cbbb 9bdf 9f3b
00000120: 3e98 253c 3de1 b6bc 1115 0c3d be61 863c
00000130: 83d9 8a3d 6423 f7bd 2a40 60bd 9c4e 34bd
00000140: ebb9 a2bc 9ba6 1bbd 75e7 c3bb 307a 2e3d
00000150: b755 4bbd 945d b63c 40f6 883d 0999 513d
00000160: 4206 193d 3e60 24bd 7c05 473e 92cd 883b
00000170: 287b ef3d 3e3f c33c 8cc3 853d 4579 32be
00000180: d184 a3ba bb00 90bd c77b 54bd 048d e6bc

bn1.running_mean f4 [100]
0.10394608 -0.006846298 0.022669522 -0.0010458631 0.023280932 0.03432791 0.025437467 0.09874557
-0.10292549 0.03714225 0.19666019 -0.016213195 -0.13034964 -0.057922203 -0.04849826 0.044915378
0.118283734 0.0063186027 0.0029723756 -0.03009488 0.21813929 0.10880034 -0.13640833 -0.009643845
-0.083549954 0.10327959 -0.1301413 -0.046597824 0.10969673 -0.08159693 1.4420599e-05 -0.08867116
-0.0012260666 0.0133111235 -0.015498335 -0.0015523173 0.18266733 0.0068272334 0.12116189 -0.045163527
0.11052479 -0.04587407 0.03429463 -0.19273062 0.025265478 -0.22061394 0.013336634 0.05908481
-0.099178575 0.024741039 0.0539942 0.09188528 -0.118347526 -0.0065587964 0.1335656 -0.05334684
-0.2555922 0.1849367 0.012777803 -0.14107372 -0.007617344 -0.2328435 0.024462325 -0.104868986
0.092124976 0.18112889 0.0091737695 -0.17777643 -0.013416702 0.2839558 -0.07147615 -0.12518032
-0.10018381 0.114734754 0.117186174 -0.036606476 -0.06298435 -0.084338166 -0.071010076 0.097788945
0.19768292 0.09359066 0.07997086 -0.15517837 -0.102285676 0.00336794 0.10924433 -0.13682686
0.19549036 -0.09660561 0.09227867 -0.006185131 -0.044940736 0.079151556 -0.043933548 0.043954823
-0.0691378 -0.14042476 -0.09230391 0.054072924
00000000: afe1 d43d e956 e0bb 6fb5 b93c 5815 89ba
00000010: a7b7 be3c 6c9b 0c3d 3c62 d03c 1e3b ca3d
00000020: 99ca d2bd 7922 183d 4a61 493e 89d1 84bc
00000030: 607a 05be d53f 6dbd 1da6 46bd 30f9 373d
00000040: be3e f23d 480c cf3b 30cc 423b 8a89 f6bc
00000050: e85f 5f3e b6d2 de3d a0ae 0bbe 3801 1ebc
00000060: 3d1c abbd 4084 d33d c343 05be 5cdd 3ebd
00000070: aea8 e03d 4b1c a7bd 00f0 7137 3a99 b5bd
00000080: f8b3 a0ba e616 5a3c baec 7dbc 2077 cbba
00000090: 250d 3b3e fcb6 df3b ba23 f83d 64fd 38bd
000000a0: d25a e23d 73e6 3bbd 8778 0c3d 2d5b 45be
000000b0: 8cf9 ce3c 9fe8 61be e681 5a3c ea02 723d
000000c0: 231e cbbd b8ad ca3c 0629 5d3d 5a2e bc3d
000000d0: 3060 f2bd 2ceb d6bb 6cc5 083e 3782 5abd
000000e0: fbdc 82be 0c60 3d3e fd59 513c a175 10be
000000f0: ea9a f9bb 876e 6ebe 3765 c83c 8dc5 d6bd
00000100: 05ac bc3d da79 393e 944d 163c 060b 36be
00000110: bad1 5bbc a862 913e 1662 92bd 452f 00be
00000120: 2b2d cdbd 0efa ea3d 4eff ef3d acf0 15bd
00000130: f0fd 80bd 7db9 acbd bb6d 91bd 9245 c83d
00000140: 646d 4a3e 76ac bf3d c3c7 a33d 14e7 1ebe
00000150: 277b d1bd a8b8 5c3b 7ebb df3d 571c 0cbe
00000160: a02e 483e 29d9 c5bd 99fc bc3d a4ac cabb
00000170: c713 38bd 361a a23d aaf3 33bd f909 343d
00000180: 1e98 8dbd 82cb 0fbe d509 bdbd 927b 5d3d

bn1.running_var f4 [100]
0.95476866 0.5378528 0.35504618 0.4974712 0.280895 0.4112334 0.6194532 1.030474
0.65666664 0.42284027 0.6905169 0.65296054 1.3169178 0.62091947 1.1435045 0.80751264
0.4656999 0.53807527 1.1710628 0.5709557 1.2283905 0.28901497 0.45181054 0.4180353
0.46566713 2.3072078 0.8612357 0.86558455 0.6239725 0.96954685 1.3990693 0.6978648
0.9566062 0.28740752 0.39451638 0.52743137 0.7461094 0.9074354 0.5223767 0.6721545
0.44484636 0.5514581 0.44029948 0.6821213 0.68343854 0.45897636 0.56099075 0.9560296
0.707116 0.5165021 1.0311928 0.3865961 0.70687574 0.45057675 0.8406129 0.51628506
0.42888895 1.0315512 0.69740874 0.69587874 0.5630332 0.62887985 0.60580236 0.35432014
0.56034845 0.90819407 0.6099338 0.54360306 0.9689007 1.2014875 0.37102714 0.4410602
1.151944 0.620529 0.5887057 0.4433963 0.6126902 0.8501467 0.32842878 0.6934902
1.0275948 1.4731873 0.30545205 0.4677056 0.8658087 0.29360497 0.6852176 0.4267977
0.31974104 0.48516992 0.41095442 0.40772694 0.36569357 0.58801436 1.0090246 0.7506261
0.76509094 0.46203205 0.9922046 0.6671118
00000000: b86b 743f b9b0 093f 9dc8 b53e 8cb4 fe3e
00000010: 78d1 8f3e 2f8d d23e 7c94 1e3f 92e6 833f
00000020: 4e1b 283f 857e d83e b7c5 303f 6c28 273f
00000030: c390 a83f 94f4 1e3f 5b5e 923f 26b9 4e3f
00000040: 3870 ee3e 4dbf 093f 63e5 953f 272a 123f
00000050: e63b 9d3f c5f9 933e b653 e73e b908 d63e
00000060: ec6b ee3e 4ba9 1340 f179 5c3f f396 5d3f
00000070: a9bc 1f3f 3934 783f b414 b33f 44a7 323f
00000080: 25e4 743f 1427 933e 0dfe c93e be05 073f
00000090: 0701 3f3f b04d 683f 7bba 053f 5112 2c3f
000000a0: e7c2 e33e 5c2c 0d3f ef6e e13e 809f 2e3f
000000b0: d4f5 2e3f f3fe ea3e 179d 0f3f 5bbe 743f
000000c0: 8e05 353f 7b39 043f 20fe 833f edef c53e
000000d0: cff5 343f ffb1 e63e 6832 573f 422b 043f
000000e0: 5597 db3e df09 843f 6189 323f 1c25 323f
000000f0: f222 103f 45fe 203f dd15 1b3f 7369 b53e
00000100: ff72 0f3f 687f 683f 9f24 1c3f 9229 0b3f
00000110: e009 783f 58ca 993f 45f7 bd3e a4d2 e13e
00000120: e772 933f fdda 1e3f 6bb5 163f d704 e33e
00000130: 44d9 1c3f 37a3 593f d127 a83e 9388 313f
00000140: 3a88 833f 6791 bc3f 3664 9c3e 1c77 ef3e
00000150: a4a5 5d3f 6453 963e 6c6a 2f3f 3a85 da3e
00000160: 19b5 a33e 3168 f83e 9e68 d23e 96c1 d03e
00000170: 303c bb3e 1c88 163f b827 813f 0829 403f
00000180: 00dd 433f 778f ec3e 1f01 7e3f d7c7 2a3f

l2.weight f4 [100, 100]
-0.17517102 0.01261188 -0.106610954 0.05461512 -0.044375334 0.112682186 0.082295746 0.060556233
-0.0050376933 0.047796488 -0.036478963 0.12179978 -0.095630504 0.13337658 0.01089081 0.066136025
0.09320243 0.026763933 -0.04445148 0.118456945 -0.036036942 0.12774494 0.12863363 0.023411848
-0.005169543 0.042107668 -0.18813503 -0.009993065 0.0024491705 -0.095124915 0.067013696 0.11997608
0.071044445 0.031049067 0.036645193 0.0063678874 0.14448005 0.14672829 -0.020989656 -0.15622869
0.036860984 -0.10388937 0.058095753 0.023667147 0.042775016 0.093866505 -0.07306703 0.07090087
-0.006784068 -0.0007008688 0.038336016 0.12158369 0.060442474 0.04013785 -0.0097278785 0.10038053
-0.029934706 -0.056592774 0.012658647 0.00235729 -0.04599793 0.10006048 0.12125493 -0.04804803
0.04136076 0.036787212 0.037299614 -0.053275056 -0.14378135 0.021937361 -0.07948482 0.08242011
0.041448403 0.014019541 -0.01422296 -0.08770083 0.022881443 0.044640467 -0.0028902118 -0.063387394
0.097502224 -0.13588849 0.08940672 -0.0791156 -0.0009838904 -0.06942502 -0.059222635 -0.0056599653
0.002567193 -0.01464723 -0.057457007 -0.027652716 0.048445854 -0.04948254 0.17353778 0.023896426
0.019674335 0.07504292 0.039096944 -0.053005762 -0.02037962 -0.018299142 0.023680937 0.029575244
0.040690094 -0.08564481 -0.06379602 0.07355431 0.0577656 -0.025673514 0.11206963 0.10383063
0.034302913 0.1420159 -0.0057462384 -0.014799711 -0.14371254 -0.19759427 0.0829729 -0.056868352
0.014668655 -0.066443495 0.011504157 0.19906506 0.06618974 0.028745791 0.037857797 0.111980826
0.13036445 -0.08156799 -0.036335994 -0.07906669 -0.13105723 0.05238522 -0.1349832 -0.1279183
-0.0774338 0.119784296 -0.14457518 -0.048060235 -0.06420654 -0.06962868 0.042837333 0.065281495
0.048133794 -0.044103872 0.06796526 -0.04493267 0.005520463 -0.07513231 -0.029756287 0.060867347
-0.027484607 0.15130617 -0.0027078297 -0.056822572 0.126923 0.07357099 0.0040752213 0.085067876
-0.009079758 -0.0037122346 -0.06631199 0.19314575 0.0828875 -0.022372475 -0.014622498 0.10471932
0.027683483 -0.06335147 -0.0922867 0.107213624 0.0019227852 -0.10057995 -0.16907129 -0.048391573
0.050422784 0.07970139 -0.058663964 0.0024830273 -0.027001271 0.056019638 -0.025953313 -0.047005337
-0.11043419 0.1888736 0.0024622858 -0.099776305 0.11473767 -0.026466576 -0.021212429 0.12982807
-0.10197856 0.16340153 -0.12834057 0.09205977 -0.10820501 0.08616695 -0.09621356 0.069506
0.030180955 -0.09132932 0.020656534 0.026673721 0.10380113 -0.08659544 -0.013268416 0.1429215
-0.10600264 -0.049986925 0.16768317 -0.041780002 -0.022591308 0.07550371 0.038686033 0.13243914
-0.032262396 0.008096506 0.016203826 0.042657178 0.059574928 -0.06155741 -0.06603091 0.045099106
0.048722036 -0.00059198344 -0.05264406 0.047375955 -0.0060118064 -0.016185345 -0.05131259 0.014768904
0.058470294 -0.007578693 -0.24829121 0.034586094 -0.14723766 0.08002723 -0.14641647 0.059922382
0.025547696 0.08655087 0.09846644 0.09905389 0.16089271 0.07229185 0.07037672 0.076696225
0.047101066 -0.03506204 -0.07587132 0.032361403 0.1442883 -0.019471688 -0.07410383 -0.05602775
00000000: 0860 33be 0fa2 4e3c d856 dabd 1bb4 5f3d
00000010: e9c2 35bd ebc5 e63d ac8a a83d d009 783d
00000020: 3c13 a5bb 40c6 433d f76a 15bd 2a72 f93d
00000030: edd9 c3bd df93 083e 5e6f 323c 5372 873d
00000040: eae0 be3d 0940 db3c c112 36bd 8e99 f23d
00000050: 799b 13bd 92cf 023e 89b8 033e 34ca bf3c
00000060: 4565 a9bb 1779 2c3d 78a6 40be f4b9 23bc
00000070: 4382 203b dad0 c2bd 7a3e 893d 05b6 f53d
00000080: c07f 913d 9d5a fe3c 4519 163d b6a9 d03b
00000090: 94f2 133e f13f 163e 80f2 abbc 6afa 1fbe
000000a0: 8bfb 163d f3c3 d4bd d0f5 6d3d 9be1 c13c
000000b0: db34 2f3d 153d c03d 2ba4 95bd 7a34 913d
000000c0: e34c debb 82ba 37ba 3a06 1d3d df00 f93d
000000d0: 8792 773d 9667 243d ae61 1fbc 4f94 cd3d
000000e0: a139 f5bc d3cd 67bd 3766 4f3c c37c 1a3b
000000f0: 5368 3cbd 82ec cc3d 8154 f83d 03ce 44bd
00000100: e669 293d 30ae 163d 7bc7 183d f236 5abd
00000110: 6b3b 13be fbb5 b33c f0c8 a2bd e0cb a83d
00000120: cdc5 293d 38b2 653c 6b07 69bc 7e9c b3bd
00000130: dd71 bb3c ecd8 363d b569 3dbb 40d1 81bd
00000140: 3faf c73d 5a26 0bbe df1a b73d 5c07 a2bd
00000150: e2f5 80ba b42e 8ebd 6f93 72bd 3b77 b9bb
00000160: 5a3e 283b effa 6fbc 0a58 6bbd f387 e2bc
00000170: 296f 463d 34ae 4abd e3b3 313e 70c2 c33c
00000180: 122c a13c 1ab0 993d 1e24 203d 921c 59bd
00000190: 29f3 a6bc 15e8 95bc 86fe c13c c847 f23c
000001a0: a8aa 263d 8c66 afbd 7da7 82bd a4a3 963d
000001b0: 9f9b 6c3d 4351 d2bc c384 e53d 27a5 d43d
000001c0: 3681 0c3d 9e6c 113e f14a bcbb 7d7a 72bc
000001d0: 6129 13be 2756 4abe b2ed a93d caee 68bd
000001e0: cc54 703c 8713 88bd ef7b 3c3c b6d7 4b3e
000001f0: 7d8e 873d 4b7c eb3c c710 1b3d 3456 e53d
00000200: 427e 053e 1e0d a7bd 0dd5 14bd b7ed a1bd
00000210: de33 06be e291 563d 0939 0abe 04fd 02be
00000220: 9d95 9ebd 7851 f53d 840b 14be cfda 44bd
00000230: b87e 83bd 7b99 8ebd 3376 2f3d 4eb2 853d
00000240: f127 453d 43a6 34bd 5f31 8b3d 520b 38bd
00000250: 00e5 b43b f8de 99bd 75c3 f3bc 0a50 793d
00000260: 6627 e1bc 01f0 1a3e d875 31bb c9be 68bd
00000270: 1af8 013e 63ac 963d 6f89 853b 1138 ae3d
00000280: 44c3 14bc f648 73bb 95ce 87bd 00c8 453e
00000290: ecc0 a93d 7b46 b7bc 3493 6fbc 1577 d63d
000002a0: 79c8 e23c 6abe 81bd cf00 bdbd d192 db3d
000002b0: f705 fc3a dcfc cdbd 0621 2dbe 3e36 46bd
000002c0: 1f88 4e3d 7b3a a33d a049 70bd 49ba 223b
000002d0: c531 ddbc d974 653d 0b9c d4bc ab88 40bd
000002e0: 522b e2bd 1568 413e 4d5e 213b 8557 ccbd
000002f0: 95fb ea3d 6fd0 d8bc b0c5 adbc a6f1 043e
00000300: 23da d0bd bb52 273e b66b 03be d589 bc3d
00000310: 979a ddbd 4c78 b03d 9d0b c5bd 2959 8e3d
00000320: 0d3e f73c de0a bbbd e437 a93c d982 da3c
00000330: b095 d43d f358 b1bd c563 59bc 045a 123e
00000340: ea17 d9bd 17bf 4cbd 23b5 2b3e 8221 2bbd
00000350: 6811 b9bc b0a1 9a3d 3f75 1e3d 209e 073e
00000360: 9325 04bd 35a7 043c e3bd 843c 4bb9 2e3d
00000370: d704 743d 9f23 7cbd 373b 87bd d7b9 383d
00000380: c290 473d 562f 1bba 4ca1 57bd 4a0d 423d
00000390: b0fe c4bb 2197 84bc 262d 52bd 46f9 713c
000003a0: 8c7e 6f3d af56 f8bb 0d40 7ebe 26aa 0d3d
000003b0: 78c5 16be 51e5 a33d 33ee 15be 2c71 753d
000003c0: 6749 d13c 9541 b13d c6a8 c93d c4dc ca3d
000003d0: 0fc1 243e c00d 943d ab21 903d e912 9d3d
000003e0: 0ced 403d 379d 0fbd 6c62 9bbd 648d 043d
000003f0: 50c0 133e 1783 9fbc c0c3 97bd 5b7d 65bd

l2.bias f4 [100]
0.024002187 -0.033799473 0.06624268 0.01943517 -0.0033725116 -0.098689415 0.0109436475 -0.06415007
-0.08423514 0.049824145 -0.017601095 -0.029687235 -0.017481843 0.08275894 -0.004726067 -0.060947865
0.089018345 -0.051294748 0.077832505 0.092958674 0.024480099 -0.09143851 -0.022730881 -0.07631962
-0.08535752 -0.05822726 -0.05079719 -0.08222082 -0.060180847 -0.0645523 -0.086458474 -0.07164158
-0.09067263 -0.008815178 -0.00082460267 -0.04462547 0.09067877 0.043073036 0.07605915 0.05182297
-0.038296252 0.007638449 0.039041955 -0.07432547 0.08293885 -0.06832702 0.0045351614 -0.11587151
-0.060416274 0.07413467 -0.07062783 0.09243845 0.057098392 0.1044369 -0.06727147 -0.06680557
0.06873052 -0.030406985 -0.0023970217 0.10027224 -0.012201554 -0.027089315 0.054690342 0.04974687
0.00569395 -0.0030069551 0.09040402 -0.023457417 0.105713554 0.050386064 0.019741412 -0.06056499
0.072141275 -0.02881997 -0.0480914 -0.0036447085 0.016956272 -0.10602197 0.022505756 -0.010314302
0.035145003 0.01796007 -0.03502986 -0.008669527 -0.032934316 0.085360765 -0.09358271 0.027859217
0.072588935 0.033473406 -0.043323494 0.030828955 0.049887452 0.042696424 0.016369792 -0.07929776
0.021768201 -0.033672243 0.08019877 0.07839553
00000000: 3ca0 c43c 5171 0abd 3eaa 873d 8136 9f3c
00000010: 5b05 5dbb ad1d cabd fc4c 333c 1d61 83bd
00000020: 7983 acbd 6714 4c3d 2c30 90bc a532 f3bc
00000030: 1536 8fbc 857d a93d 20dd 9abb 78a4 79bd
00000040: 404f b63d 711a 52bd a666 9f3d 1e61 be3d
00000050: 7d8a c83c 1d44 bbbd 1d36 babc 764d 9cbd
00000060: eccf aebd b57f 6ebd b710 50bd 6463 a8bd
00000070: 3180 76bd ff33 84bd 2411 b1bd d2b8 92bd
00000080: 92b2 b9bd 896d 10bc 262a 58ba 32c9 36bd
00000090: cab5 b93d 5a6d 303d e6c4 9b3d 5344 543d
000000a0: 88dc 1cbd f44b fa3b 75ea 1f3d f437 98bd
000000b0: d8db a93d 09ef 8bbd b19b 943b 0b4e edbd
000000c0: 0e77 77bd ebd3 973d 53a5 90bd 5f50 bd3d
000000d0: 01e0 693d 03e3 d53d a0c5 89bd 5cd1 88bd
000000e0: 96c2 8c3d 1218 f9bc 5a17 1dbb 885b cd3d
000000f0: 07e9 47bc 69ea ddbc fb02 603d 60c3 4b3d
00000100: 5194 ba3b 5610 45bb be25 b93d c529 c0bc
00000110: 5980 d83d 9e61 4e3d beb8 a13c ff12 78bd
00000120: cebe 933d dc17 ecbc 7dfb 44bd 10dc 6ebb
00000130: e1e7 8a3c 0c22 d9bd fe5d b83c 51fd 28bc
00000140: 35f4 0f3d ff20 933c 787b 0fbd a20a 0ebc
00000150: 22e6 06bd a0d1 ae3d 4ba8 bfbd 0339 e43c
00000160: 82a9 943d 691b 093d fa73 31bd 018d fc3c
00000170: c956 4c3d 72e2 2e3d f119 863c dd66 a2bd
00000180: 3a53 b23c e8eb 09bd 413f a43d d68d a03d

bn2.weight f4 [100]
0.9796187 1.1181033 0.9648755 0.98691964 0.9709008 0.99942875 0.96421695 1.1296296
1.0605042 1.056952 1.051376 0.98954886 1.0007944 1.072464 0.97839093 0.9780577
1.1836048 1.134441 1.0053504 1.0137404 1.0467223 0.9855264 1.0962325 1.1189693
0.9509398 0.98821574 1.030408 0.97436696 0.9105232 0.954638 0.95048374 1.1139128
0.99359065 0.951614 1.0216008 1.082225 0.96165526 1.103862 1.087549 0.89882684
1.0428147 1.1093218 0.9848106 0.9767512 1.0094126 1.0189558 0.99198717 1.0437653
0.9660453 0.9214306 1.0003148 1.0019915 1.0210592 0.9425358 0.966093 1.0569863
1.1071708 1.0750808 1.0793315 1.0630112 1.0861424 1.0219542 1.0066886 0.9947221
1.0717062 0.92970276 0.9847175 1.0638258 0.9534909 0.900867 1.0784385 1.0520583
1.0736502 0.9609602 1.0194976 0.9905364 1.1287588 1.0965014 1.081685 1.0534706
0.8895716 1.0326551 0.98032075 1.0279207 1.0551771 1.0499648 0.9795717 1.044642
1.0182589 1.0138909 1.0545481 1.1135901 1.1630388 0.9348339 0.99914604 0.88488895
1.0777185 0.9567277 0.99110407 1.1412189
00000000: 4bc8 7a3f 021e 8f3f 1502 773f c4a6 7c3f
00000010: f48c 783f 90da 7f3f ecd6 763f b497 903f
00000020: 9abe 873f 344a 873f 7d93 863f 1353 7d3f
00000030: 081a 803f 8046 893f d477 7a3f fd61 7a3f
00000040: 5d80 973f 5d35 913f 52af 803f 3fc2 813f
00000050: fffa 853f 754b 7c3f 5951 8c3f 633a 8f3f
00000060: ca70 733f b5fb 7c3f 69e4 833f 1d70 793f
00000070: 0c18 693f 2863 743f e752 733f b294 8e3f
00000080: f55b 7e3f fa9c 733f d1c3 823f 5986 8a3f
00000090: 0a2f 763f 5a4b 8d3f ce34 8b3f 8419 663f
000000a0: f47a 853f 42fe 8d3f 8c1c 7c3f 5e0c 7a3f
000000b0: 6f34 813f 256d 823f dff2 7d3f 1a9a 853f
000000c0: bf4e 773f e0e2 6b3f 510a 803f 4241 803f
000000d0: 11b2 823f 074a 713f df51 773f 544b 873f
000000e0: c6b7 8d3f 3f9c 893f 8927 8a3f c010 883f
000000f0: b706 8b3f 65cf 823f 2cdb 803f 1ca6 7e3f
00000100: ab2d 893f 0001 6e3f 7216 7c3f 722b 883f
00000110: fb17 743f 389f 663f 460a 8a3f d9a9 863f
00000120: 5f6d 893f 7d01 763f e67e 823f cb93 7d3f
00000130: 2b7b 903f 285a 8c3f a774 8a3f 20d8 863f
00000140: f7ba 633f 0b2e 843f 4df6 7a3f e892 833f
00000150: 0b10 873f 3f65 863f 36c5 7a3f d4b6 853f
00000160: 4f56 823f 2dc7 813f 6ffb 863f 1f8a 8e3f
00000170: 75de 943f 4651 6f3f 09c8 7f3f 1588 623f
00000180: aef2 893f 1bec 743f ffb8 7d3f 7613 923f

bn2.bias f4 [100]
0.06326281 0.15578267 0.009992713 -0.004625159 0.044751078 0.091065094 0.04161757 0.21207379
0.12849668 0.11094429 0.046920802 0.06806227 0.023765372 0.11052253 0.13296445 0.0076935976
0.19846888 0.17482938 0.057257432 0.08361809 0.1555508 -0.02403488 0.17071256 0.23139657
0.03422558 0.05220547 0.1414499 0.02668842 -0.041846614 0.079192564 0.045359325 0.19429283
0.08628818 0.044532947 0.020803677 0.06684547 -0.019847764 0.19329241 0.19643353 -0.06732865
0.14438696 0.19804503 -0.019861229 0.057671674 0.10107933 0.1277929 0.08542124 0.04656515
0.0099637285 -0.04212369 0.018443033 0.09681306 0.14463802 -0.035219 0.03352068 0.12686461
0.13818131 0.14508766 0.20037466 0.16795154 0.12865296 0.05926492 0.045569293 0.05745911
0.19188903 -0.09825262 0.010499146 0.15595052 0.046429865 -0.07829069 0.1873469 0.04209361
0.104240805 0.009898852 0.0014347291 -0.009216503 0.18089153 0.13319738 0.11862531 0.057263304
-0.06419132 0.1442508 0.028496865 0.10506573 0.10969262 0.13606793 -0.0042587495 0.10432397
0.0436522 0.04384105 0.076260775 0.15875904 0.21647114 -0.067392565 0.01838087 -0.09388113
0.18931451 0.0028928258 0.0454456 0.19208248
00000000: ef8f 813d 7e85 1f3e 7ab8 233c a58e 97bb
00000010: e84c 373d 5680 ba3d 2f77 2a3d df29 593e
00000020: a294 033e c336 e33d 0730 403d 3b64 8b3d
00000030: 99af c23c a359 e23d d527 083e 931a fc3b
00000040: 6d3b 4b3e 7906 333e c586 6a3d f63f ab3d
00000050: b548 1f3e cce4 c4bc 46cf 2e3e 39f3 6c3e
00000060: 1f30 0c3d 67d5 553d 3ed8 103e aca1 da3c
00000070: 5b67 2bbd b62f a23d b3ca 393d b3f4 463e
00000080: dbb7 b03d 2e68 363d 796c aa3c 47e6 883d
00000090: c797 a2bc 72ee 453e df25 493e 9ae3 89bd
000000a0: 2dda 133e 51cc 4a3e 04b4 a2bc 2239 6c3d
000000b0: ae02 cf3d 24dc 023e 55f1 ae3d 19bb 3e3d
000000c0: e83e 233c e489 2cbd d815 973c ed45 c63d
000000d0: fd1b 143e cc41 10bd fb4c 093d cce8 013e
000000e0: 677f 0d3e dc91 143e 042f 4d3e 7dfb 2b3e
000000f0: 9abd 033e c6bf 723d dea6 3a3d 3e5a 6b3d
00000100: 8f7e 443e ab38 c9bd 9c04 2c3c 7eb1 1f3e
00000110: 3e2d 3e3d df56 a0bd ded7 3f3e 596a 2c3d
00000120: 347c d53d cb2e 223c 850d bc3a d100 17bc
00000130: a13b 393e e564 083e d4f1 f23d ed8c 6a3d
00000140: bd76 83bd 7bb6 133e 4272 e93c b42c d73d
00000150: 86a6 e03d 6455 0b3e fb8c 8bbb cea7 d53d
00000160: a6cc 323d ac92 333d 9c2e 9c3d bb91 223e
00000170: 9caa 5d3e 1d05 8abd 7a93 963c c044 c0bd
00000180: aadb 413e 9095 3d3b 2a25 3a3d 45b1 443e

bn2.running_mean f4 [100]
0.6095774 -0.004162903 0.45963222 0.5514657 0.27751747 -0.2618419 0.26770544 0.08250589
0.87246764 0.37079114 0.5625201 0.12743467 -0.13224876 -0.0041863676 0.004910985 0.052002076
0.73488116 0.039330464 0.3288777 0.15812382 0.86820704 0.7531587 -0.2469503 -0.6496116
-0.029379804 -0.634343 -0.16875952 -0.32808405 -0.10187186 -0.28532478 -0.09638746 -1.1715021
-0.49209398 0.28320888 0.07228538 0.10324706 0.08763096 -0.53467304 0.2358798 0.055727497
0.020076068 0.01582395 0.41191864 0.5730205 0.4206102 -0.060650326 0.09479211 0.20485017
0.21606125 0.38114792 0.45405033 0.05230801 0.08800785 -0.17475355 -0.34664702 -0.26462308
0.27440628 -0.292031 -0.3983428 0.08582494 -0.32538673 0.5019466 -0.692913 0.30188268
-0.17844433 0.37982073 0.5269183 0.14006093 0.0739221 0.25398988 -0.29649562 0.6129331
0.39621753 0.04395088 -0.28067127 0.7293452 -0.36857477 -0.16147682 -0.34115514 0.40847912
-0.12090204 0.31728798 0.3141042 0.46069768 0.16830821 0.084832795 0.31866777 -0.7938146
-0.119532235 0.51755446 0.41837764 0.2962646 0.43835843 0.7876186 0.5165775 -0.23239659
0.047305256 -0.5423734 0.030833717 -0.70119107
00000000: 440d 1c3f f668 88bb ea54 eb3e db2c 0d3f
00000010: c516 8e3e 2410 86be b010 893e d9f8 a83d
00000020: 0a5a 5f3f 56d8 bd3e 5101 103f 3c7e 023e
00000030: 386c 07be cc2d 89bb 54ec a03b 2100 553d
00000040: 2c21 3c3f fb18 213d a862 a83e 36eb 213e
00000050: d142 5e3f 02cf 403f 8ae0 7cbe f24c 26bf
00000060: eaad f0bc 4e64 22bf 4ccf 2cbe a2fa a7be
00000070: 32a2 d0bd 1716 92be ca66 c5bd c8f3 95bf
00000080: bef3 fbbe c100 913e 5b0a 943d 3273 d33d
00000090: dc77 b33d 55e0 08bf 798a 713e 8442 643d
000000a0: 9176 a43c 3aa1 813c 00e7 d23e 79b1 123f
000000b0: 385a d73e 7a6c 78bd 5e22 c23d 3ec4 513e
000000c0: 293f 5d3e d225 c33e 4979 e83e ed40 563d
000000d0: 763d b43d 98f2 32be b87b b1be ad7c 87be
000000e0: fb7e 8c3e 1685 95be 96f3 cbbe fcc4 af3d
000000f0: 1799 a6be 937f 003f bf62 31bf 5e90 9a3e
00000100: 1cba 36be dd77 c23e 1ee4 063f 226c 0f3e
00000110: 7864 973d f60a 823e 46ce 97be 2fe9 1c3f
00000120: 06dd ca3e d705 343d 25b4 8fbe 5eb6 3a3f
00000130: d5b5 bcbe 2e5a 25be e3ab aebe 2d24 d13e
00000140: 7d9b f7bd 9273 a23e 44d2 a03e 91e0 eb3e
00000150: fd58 2c3e d1bc ad3d 6c28 a33e 6f37 4bbf
00000160: 51cd f4bd 737e 043f 9835 d63e feaf 973e
00000170: 8470 e03e 5fa1 493f 6c3e 043f 5ff9 6dbe
00000180: 28c3 413d fcd8 0abf fe96 fc3c 4281 33bf

bn2.running_var f4 [100]
1.1023502 1.7473296 1.6675218 1.400751 1.8954282 1.8031552 1.0766848 1.3434649
1.5072596 1.3783989 1.8503934 1.1936744 0.814567 1.1452792 1.6616763 0.9488224
1.1272105 1.7510666 0.9918684 1.2316641 2.4289956 1.9874662 0.76472044 1.4776036
1.3162435 1.515817 1.4990188 1.3341084 2.2537744 1.3591397 1.095286 1.0496036
1.5615346 2.7096252 2.2579355 1.138586 1.2292619 0.8920905 1.2416486 1.3527681
1.9075389 1.6221582 1.6617684 1.2824421 1.6278623 1.2772434 1.3007098 1.5038744
1.5694042 0.58845323 1.2232558 2.496197 1.7336025 0.8670128 1.160643 1.836888
1.7455388 1.8715799 1.482848 1.8195691 1.0833143 1.7578818 1.2195684 1.3664049
1.3185985 0.88171834 1.3886226 1.5253533 1.3209102 1.9690245 2.1232135 1.9345512
2.1876152 0.96364945 1.5058936 1.5067824 2.0191596 1.1756812 0.8234043 1.3464353
0.85394055 1.6516143 0.56710476 1.5079646 1.5793529 1.2725021 1.8699869 0.9460663
1.3255078 1.4921931 1.697496 2.288635 2.129783 1.0099844 1.61394 1.4603412
1.8503357 1.970364 0.8370045 1.5697926
00000000: d019 8d3f 7fa8 df3f 5b71 d53f cf4b b33f
00000010: 649d f23f cacd e63f cfd0 893f a8f6 ab3f
00000020: e2ed c03f 606f b03f b1d9 ec3f 53ca 983f
00000030: 7787 503f 8298 923f cfb1 d43f 06e6 723f
00000040: 6f48 903f f322 e03f 16eb 7d3f 2ba7 9d3f
00000050: aa74 1b40 4b65 fe3f b8c4 433f 1d22 bd3f
00000060: ab7a a83f 4b06 c23f d9df bf3f 10c4 aa3f
00000070: d73d 1040 4af8 ad3f 5532 8c3f 6959 863f
00000080: 5ee0 c73f 806a 2d40 0482 1040 30bd 913f
00000090: 7458 9d3f 0b60 643f 57ee 9e3f 8127 ad3f
000000a0: 3c2a f43f e1a2 cf3f d4b4 d43f 1027 a43f
000000b0: cb5d d03f b67c a33f a97d a63f f57e c03f
000000c0: 3de2 c83f dfa4 163f a593 9c3f b1c1 1f40
000000d0: b0e6 dd3f 8df4 5d3f f38f 943f 251f eb3f
000000e0: d16d df3f ee8f ef3f f7cd bd3f a4e7 e83f
000000f0: 0baa 8a3f 4502 e13f d11a 9c3f 5be6 ae3f
00000100: d6c7 a83f 4bb8 613f 63be b13f c73e c33f
00000110: 9613 a93f ff08 fc3f bbe2 0740 609f f73f
00000120: e301 0c40 bbb1 763f 1fc1 c03f 3fde c03f
00000130: e939 0140 b97c 963f a0ca 523f fe57 ac3f
00000140: d99b 5a3f 1968 d33f c72d 113f fc04 c13f
00000150: 3c28 ca3f 59e1 a23f bb5b ef3f 6731 723f
00000160: 3daa a93f 2f00 bf3f 8d47 d93f ff78 1240
00000170: 5d4e 0840 2b47 813f 9695 ce3f 76ec ba3f
00000180: cdd7 ec3f e334 fc3f ed45 563f f7ee c83f

l3.weight f4 [5, 100]
-0.19369057 -0.17480801 -0.11144229 -0.17985392 -0.16752966 -0.19329944 -0.15485188 -0.2723313
-0.24862252 -0.24190469 -0.08189634 -0.22206046 -0.16363987 -0.13656195 -0.14217827 -0.10768436
-0.15986554 -0.30206752 -0.107358634 -0.24200992 -0.1238021 -0.15955523 -0.28614494 -0.2575536
-0.046587862 -0.22048277 -0.21253248 -0.124791086 -0.16595036 -0.18468527 -0.23299453 -0.24529545
-0.28017366 -0.13633877 -0.13106626 -0.21955962 -0.23101315 -0.16769361 -0.18714744 -0.14375755
-0.18557478 -0.23203783 -0.099065416 -0.057927128 -0.07053757 -0.27378228 -0.20983653 -0.23121685
-0.06655497 -0.09370315 -0.18072782 -0.17044647 -0.09685565 -0.10844453 -0.26692295 -0.25267535
-0.2345028 -0.3012185 -0.24694161 -0.26273254 -0.122301236 -0.06470079 -0.20134114 -0.09792259
-0.17606145 -0.14812952 -0.26806492 -0.23432307 -0.22808422 -0.08927958 -0.14811966 -0.08755114
-0.10877372 -0.23233843 -0.26270247 -0.19931947 -0.20640695 -0.29109013 -0.17954347 -0.065058924
-0.07304602 -0.082455136 -0.13179663 -0.15279599 -0.21531357 -0.16106388 -0.08158494 -0.19097388
-0.15854886 -0.19302088 -0.22895321 -0.15531115 -0.1401421 -0.078442656 -0.16094366 -0.087026834
-0.23913318 -0.07073473 -0.22251077 -0.19458033 0.08162751 0.008114914 -0.02006315 0.05495732
-0.068881266 0.0658793 0.020183312 0.074379146 0.078100696 0.08941367 0.093402036 0.05859872
-0.01094324 0.088068865 0.08186731 -0.012512512 0.042322673 0.13733137 0.045290727 0.03888625
0.07619316 0.040250994 0.121417105 0.018003574 0.046426244 0.0012864133 0.10857093 -0.013862675
-0.08402576 -0.032199 0.03363072 0.031819295 -0.038773675 0.055913854 0.039371494 0.08579839
0.04052099 0.047663823 -0.01789936 -0.016842755 0.04317555 0.11062554 0.03758305 0.05934047
0.04221362 0.08282315 0.03450086 0.038554303 0.068987355 -0.0013892693 0.10163763 -0.042940952
0.098128036 0.0022798846 0.00973868 0.041569814 0.16683991 0.06317696 0.020770196 0.080389194
0.08510841 0.057838514 0.0763076 0.12339088 0.07088654 -0.08857297 -0.026869392 0.09872969
-0.011008752 -0.06554886 0.028686995 0.08234863 0.1321111 0.0020941978 0.11336165 0.077059634
0.020522945 0.081752285 0.09886564 0.08839781 -0.021846736 0.1334171 0.04441057 0.06722216
-0.032292735 0.12487103 0.020627469 0.050740328 0.0768688 0.016641315 0.12674887 0.09290074
0.08887431 -0.008010051 0.065850385 -0.056875523 -0.009317373 0.05160767 -0.0078690145 0.105827086
-0.0056172716 0.10185782 0.06360872 -0.013229882 0.048954718 -0.048571177 -0.086754136 0.13194025
-0.008307136 -0.0068534235 -0.14484145 0.09731457 -0.0070159184 0.13734916 -0.05774274 0.062053096
-0.04415709 0.044154968 -0.034766883 0.00498956 -0.092772946 -0.009020521 0.09971741 0.04506967
-0.008138646 0.012776079 0.028126858 0.07455639 -0.01258743 0.0136742275 0.030841526 0.046536654
0.014174713 -0.034327272 -0.086822554 -0.033117935 -0.04598429 0.0937156 0.10775022 -0.0615856
0.13062173 -0.013029965 0.0929548 -0.051121525 0.095928304 0.07779841 -0.04425537 -0.03081533
0.005669987 -0.006489847 -0.032231115 0.0154745355 0.087702274 0.04885812 0.08234094 0.14411062
00000000: d256 46be df00 33be db3b e4bd a02b 38be
00000010: e58c 2bbe 4af0 45be 7e91 1ebe 026f 8bbe
00000020: e796 7ebe ddb5 77be 45b9 a7bd d163 63be
00000030: 3691 27be e5d6 0bbe 2e97 11be 9e89 dcbd
00000040: cbb3 23be 98a8 9abe d8de dbbd 73d1 77be
00000050: f58b fdbd 7262 23be 9781 92be 11de 83be
00000060: ead2 3ebd 3cc6 61be 1da2 59be 7892 ffbd
00000070: e4ee 29be 231e 3dbe 1e96 6ebe bb2e 7bbe
00000080: ec72 8fbe 649c 0bbe 3c36 06be 3dd4 60be
00000090: b68e 6cbe e0b7 2bbe 94a3 3fbe 2e35 13be
000000a0: 5107 3ebe 539b 6dbe cfe2 cabd ff44 6dbd
000000b0: 0076 90bd 312d 8cbe 63df 56be 1cc4 6cbe
000000c0: f94d 88bd 70e7 bfbd b710 39be 8589 2ebe
000000d0: 415c c6bd 2a18 debd 20aa 88be aa5e 81be
000000e0: 8121 70be 5039 9abe 43de 7cbe e184 86be
000000f0: 1279 fabd d981 84bd 5f2c 4ebe a48b c8bd
00000100: 7449 34be 44af 17be ce3f 89be 63f2 6fbe
00000110: e98e 69be 36d8 b6bd aeac 17be 034e b3bd
00000120: c2c4 debd 20ea 6dbe f080 86be 671a 4cbe
00000130: 585c 53be c409 95be 3eda 37be 9d3d 85bd
00000140: 2799 95bd 3dde a8bd b2f5 06be 8d76 1cbe
00000150: 297b 5cbe eeed 24be 0116 a7bd a88e 43be
00000160: a25a 22be 44a7 45be b672 6abe e309 1fbe
00000170: 6981 0fbe 8ba6 a0bd 6ace 24be 203b b2bd
00000180: 54df 74be 5fdd 90bd ddd9 63be 1140 47be
00000190: 532c a73d 6bf4 043c 7a5b a4bc ed1a 613d
000001a0: 9f11 8dbd baeb 863d 7957 a53c 1854 983d
000001b0: 42f3 9f3d 841e b73d 9149 bf3d 3605 703d
000001c0: 464b 33bc 735d b43d 0caa a73d 4701 4dbc
000001d0: 8a5a 2d3d 98a0 0c3e c582 393d 3047 1f3d
000001e0: 290b 9c3d 3ade 243d 88a9 f83d 3b7c 933c
000001f0: 7229 3e3d de9c a83a 705a de3d 4620 63bc
00000200: b315 acbd 19e3 03bd 5ec0 093d f354 023d
00000210: 25d1 1ebd ed05 653d 0144 213d 11b7 af3d
00000220: 56f9 253d 243b 433d aea1 92bc d1f9 89bc
00000230: d8d8 303d a58f e23d aff0 193d fe0e 733d
00000240: 30e8 2c3d 2f9f a93d c650 0d3d 1eeb 1d3d
00000250: 3e49 8d3d 2418 b6ba 6427 d03d dae2 2fbd
00000260: 5af7 c83d 1e6a 153b fc8e 1f3c 1c45 2a3d
00000270: 15d8 2a3e ec62 813d 4226 aa3c 17a3 a43d
00000280: 514d ae3d 14e8 6c3d 2947 9c3d 5cb4 fc3d
00000290: f62c 913d bf65 b5bd 331d dcbc cb32 ca3d
000002a0: 0d5e 34bc 7b3e 86bd fd00 eb3c 66a6 a83d
000002b0: 2248 073e cf3e 093b 272a e83d 71d1 9d3d
000002c0: bc1f a83c be6d a73d 127a ca3d e909 b53d
000002d0: edf7 b2bc 7e9e 083e dce7 353d c6ab 893d
000002e0: 6345 04bd 62bc ff3d f0fa a83c 17d5 4f3d
000002f0: 646d 9d3d 5e53 883c 75ca 013e be42 be3d
00000300: bc03 b63d 973c 03bc 91dc 863d 4ff6 68bd
00000310: e5a7 18bc 9062 533d 0aed 00bc dfbb d83d
00000320: 1711 b8bb d59a d03d 4a45 823d 26c2 58bc
00000330: be84 483d 92f2 46bd 27ac b1bd 581b 073e
00000340: a71a 08bc af92 e0bb 5151 14be dc4c c73d
00000350: cae5 e5bb 42a5 0c3e a783 6cbd 632b 7e3d
00000360: 11de 34bd d7db 343d b867 0ebd 777f a33b
00000370: beff bdbd cfca 13bc a438 cc3d f99a 383d
00000380: f557 05bc c252 513c 4c6a e63c 05b1 983d
00000390: 823b 4ebc de09 603c 5ea7 fc3c 389d 3e3d
000003a0: 0e3d 683c c19a 0cbd 06d0 b1bd aca6 07bd
000003b0: 065a 3cbd f7ed bf3d 26ac dc3d 2f41 7cbd
000003c0: b4c1 053e a27b 55bc 165f be3d ce64 51bd
000003d0: 0f76 c43d c654 9f3d 1e45 35bd 6e70 fcbc
000003e0: 4ccb b93b c8a8 d4bb c604 04bd e888 7d3c
000003f0: 409d b33d 741f 483d 5ea2 a83d bc91 133e

l3.bias f4 [5]
-0.38152727 0.10428863 0.01968578 -0.2999053 -0.4004577
00000000: 8b57 c3be 4795 d53d 1344 a13c 308d 99be
00000010: cb08 cdbe
