saved_models/lstm_dist.pth (torch, 241820 bytes, 6 tensors)

lstm.weight_ih_l0 f4 [400, 47]
000000 4b 24 45 bb 3a d6 bc bd 88 03 fc bc 79 6a eb bd
       -0.0030081447 -0.09220548 -0.030763403 -0.114949174
000010 7f 4b 06 3e 4f d3 04 be 0f f9 15 be d7 76 6a bd
       0.13114737 -0.12971233 -0.1464579 -0.05724224
000020 f8 9d c8 3d 53 09 30 3d 1d ef be 3c f2 e8 49 bd
       0.09795755 0.042977642 0.023307377 -0.04929442
000030 3d 4a a4 3d 62 9e 16 3e 2a 9f fd 3d 23 2f 0e 3e
       0.08021972 0.14708856 0.12383874 0.13885169
000040 64 24 36 bd 2d 79 20 be 0a c9 95 3d 85 07 61 3b
       -0.0444683 -0.15671225 0.07313736 0.0034336757
000050 c4 73 cf bd 82 d5 01 be dd 88 83 bd 46 85 dd 3c
       -0.101295024 -0.12679103 -0.06422589 0.027041089
000060 c0 92 52 3e 0e d4 74 3d f5 f4 54 bd 62 fe 85 bd
       0.20563793 0.059772544 -0.05199142 -0.0654266
000070 7d b1 55 3d 7f 89 cb bd 0f b4 9c 3b 40 ff c8 35
       0.05217122 -0.09938335 0.004782207 1.4975449e-06
000080 a5 48 b3 bb d1 8c 37 3b c0 07 cd bd e2 b8 75 bd
       -0.0054713064 0.0028007517 -0.10011244 -0.05999077
000090 7c 8b c5 bd ed 96 a4 bd db 63 d9 bd d3 91 26 be
       -0.09645745 -0.08036599 -0.10614749 -0.16266565
0000a0 3d f7 03 be 70 38 7a bd a3 be 8b bb f3 37 dd 3d
       -0.12887283 -0.06108898 -0.004264669 0.10801687
0000b0 38 8c a8 3c c6 80 50 3e 72 be 3a 3d 9c 6e fe 3d
       0.020574674 0.20361623 0.04559178 0.12423441
0000c0 55 99 37 3e 8c e6 df 3d 5d e5 78 3d dc 5c 3f 3d
       0.17929585 0.10932645 0.060765613 0.046719417
0000d0 72 17 88 3c b9 21 cd 3d 30 57 91 3d 11 81 01 bd
       0.016612742 0.10016198 0.07096708 -0.031617228
0000e0 1f 98 85 3d 67 58 3b 3c fb 39 ce ba 8c 53 a8 3d
       0.065231554 0.011434651 -0.0015733832 0.0821906
0000f0 d9 35 bd 3d c5 29 80 bd 52 34 bf 3d bc 4f 8f bd
       0.09238786 -0.06257967 0.09336151 -0.0699763
000100 82 47 32 3c 03 20 09 bd d5 73 01 3d ed 63 55 3d
       0.010881307 -0.033477794 0.031604607 0.05209725
000110 48 82 30 3c 81 e2 10 be e2 b5 71 3d 47 05 36 bc
       0.010773249 -0.14148904 0.059011348 -0.011109657
000120 6c 5f 45 bc 45 01 81 3c 81 8f bd 3d de 50 13 3d
       -0.012046676 0.015747676 0.09255887 0.035965793
000130 51 1d 9c 3d a5 9a 11 3e ba 9b d9 3d 7a 3e 36 bd
       0.07622779 0.14219148 0.106254056 -0.044493176
000140 0c be 2f 3e b5 a0 07 3e 1d fc 9d 3d e0 72 8a 3d
       0.17162341 0.13244899 0.077141024 0.06760192
000150 5c 97 88 3d d0 49 5e 3d c2 d1 33 3d 25 e1 ee 3d
       0.066694945 0.05426961 0.043901213 0.11664037
000160 d0 d6 60 3d 34 2c 64 3e a6 63 48 3d 6f b5 9b 3d
       0.05489236 0.22282487 0.048923157 0.07602965
000170 5f 5a 11 3e 26 53 7c 3d 0c b6 91 bc 5c 8b c1 3d
       0.1419463 0.061602734 -0.017787002 0.09450409
000180 6f 1b 0c 3c 2c 95 80 3d e9 c6 7d 3d 24 3e b8 3b
       0.008551463 0.06278452 0.061957274 0.005622642
000190 27 e5 38 bc 77 d4 88 bd 2f 08 89 3d 3f 29 fa 3d
       -0.011285103 -0.066811495 0.06691014 0.12214898
0001a0 a9 3b 49 bd 1c 8c 3e bd ff 13 e3 bc 26 83 0d be
       -0.049129162 -0.046520337 -0.027719496 -0.1381956
0001b0 53 30 86 bb 57 4c 9c 3d e7 f1 3b bc f7 c9 d4 bd
       -0.004095116 0.07631748 -0.011471248 -0.10390084
0001c0 14 c0 c7 bb 1a 70 10 bd 6e ac 0e bd fa ee d7 bd
       -0.0060958955 -0.03526316 -0.03483241 -0.10543628
0001d0 c6 ee a8 3b 93 0f 00 bd 80 d9 8c 3d bf aa bb 3d
       0.005155417 -0.031264853 0.06877422 0.091634266
0001e0 ba 50 a9 3d f9 17 c9 3c 78 5f f2 3b 0d 27 f3 bc
       0.082673505 0.024547564 0.0073966347 -0.029681707
0001f0 8b bf e8 bd 00 93 b8 bd 8e a2 14 bd 19 e3 96 bd
       -0.11364659 -0.09012413 -0.036287837 -0.07367534
000200 f1 d4 3f 3d 56 2b 09 bb 5d 6e 95 bc f4 a6 d9 bd
       0.046833936 -0.0020930371 -0.018241102 -0.10627547
000210 f3 e9 8d 3d ae 0d 14 3d 4e c0 01 3e 4f 57 fa 3c
       0.06929388 0.03614586 0.12671015 0.03055921
000220 90 76 8c 3d 41 b3 dc 3c e8 31 81 3c ce 81 de 3d
       0.068585515 0.026940944 0.015770867 0.10864602
000230 be 0a 4f 3d 57 58 e5 3d 7a 32 db 3d 24 8e 44 3d
       0.050547354 0.1119849 0.10702987 0.04798712
000240 85 aa 73 3d 3d 29 a2 3c 7f d8 04 bd 13 87 35 3d
       0.059488792 0.019795055 -0.03243303 0.04431827
000250 29 f5 00 3e 45 56 03 3e f3 fd 2e 3d 60 5f 2f be
       0.12593521 0.12825878 0.042722654 -0.17126226
000260 38 a0 fe b9 c1 aa 31 3e 00 6f 75 3d f1 e6 d2 3b
       -0.00048566028 0.17350294 0.05992031 0.006436222
000270 1c 82 51 3d 2e f3 2e 3d ac f7 17 bd 7e a7 97 3d
       0.051149473 0.042712383 -0.037101433 0.074049935
000280 66 b1 51 3b 1f 37 2d be 08 c8 de 3c cb 7d d4 bd
       0.0031996607 -0.16915558 0.027194992 -0.103755556
000290 28 36 56 3d e1 0c 0b be 92 0b c5 3d f3 df be 3c
       0.05229774 -0.13579132 0.096213475 0.023300147
0002a0 bb 48 e7 3d d2 bc f8 3c 4e 89 ca 3d f4 d6 95 ba
       0.11293169 0.030363474 0.0988947 -0.0011431859
0002b0 96 2d 6f 3d d9 db 18 3e 93 65 11 3e d1 c4 b8 3d
       0.058393084 0.14927615 0.14198904 0.09021915
0002c0 77 b1 c3 3d ac 2e 85 3c 1a 85 ac 3c 2c 2e f8 38
       0.09555333 0.016257606 0.021059562 0.00011834162
0002d0 e1 74 18 3e 41 e6 30 3d f7 0a 15 3e c2 19 7a bc
       0.14888336 0.043188337 0.14554964 -0.01526493
0002e0 3a d9 c7 3d e3 74 62 bd 46 0d 16 be f6 7d e2 bd
       0.097582296 -0.055287253 -0.14653501 -0.110591814
0002f0 9c 15 1b 3e 08 9d 34 3e ed 2a 5e 3e 86 7b 2a 3d
       0.15144962 0.17638028 0.21696062 0.041621707
000300 be 86 a0 3d 06 7e 33 3d 00 36 41 3e 01 0c c7 3d
       0.078382 0.043821357 0.18868256 0.097190864
000310 61 23 f8 3d 70 80 7d ba 77 ca b8 bd df 4d 98 bd
       0.12116123 -0.0009670323 -0.09022992 -0.07436728
000320 61 9d 88 bd 4b 19 a0 ba bc 67 ac bd 3e f1 a4 bb
       -0.06670643 -0.0012214569 -0.08418223 -0.005033641
000330 73 28 a9 3d 30 f9 ee 3c e2 9f a8 3c 58 75 26 3d
       0.08259668 0.029171556 0.02058405 0.04063925
000340 48 87 83 3d df 86 14 bd ec 00 e6 bd 85 40 d9 bc
       0.06422287 -0.036261436 -0.112306446 -0.026520023
000350 3e 6d c0 bc d4 42 2a 3e 0e 26 80 3d 88 a9 74 3d
       -0.02348959 0.16627055 0.06257258 0.05973199
000360 1f 8e 7a 3d cb 11 44 3e 20 8d 3d 3e fa 68 78 3d
       0.061170693 0.19147412 0.18510866 0.06064699
000370 33 4d db 3d e8 af b9 3b 4f 31 87 3c 60 37 13 3d
       0.10708084 0.0056667216 0.016503004 0.03594148
000380 54 38 4a 3d e3 d0 3b bd 61 5e b1 3d 8c 3d aa 3d
       0.049370125 -0.045853507 0.086605795 0.083125204
000390 2a 49 01 3d 11 90 3e 3d 10 f6 c1 3d 0b 64 30 3e
       0.031563915 0.04652411 0.09470761 0.17225663
0003a0 5c f7 e7 3c d5 2f 10 3d 03 b2 d9 bd 9c 05 8b bd
       0.028316192 0.035201866 -0.10629656 -0.06788179
0003b0 77 71 0e be ba 46 f6 bd 54 47 72 bd c9 4c a1 bd
       -0.13910471 -0.12025209 -0.059150055 -0.07875974
0003c0 6e 1d 31 be 18 09 51 3c f2 41 1f 3d ad de 77 3d
       -0.17296383 0.012758516 0.03888125 0.060515095
0003d0 56 38 05 3d 31 33 a4 bc 9e ef 7d 3d f9 a9 b0 bd
       0.03252443 -0.020043941 0.061996095 -0.0862617
0003e0 e4 34 b4 bd b7 f2 94 bd 7e cf 30 3d 4e 46 c3 3b
       -0.087991506 -0.07272857 0.04316663 0.0059593087
0003f0 9c f3 d7 bc 85 d6 19 be 3b b0 b9 bc c7 7a 8b 3d
       -0.02636128 -0.15023239 -0.022667041 0.06810527

lstm.weight_hh_l0 f4 [400, 100]
000000 b2 c7 6d 3d 80 fd 4c bd d8 5f ab bc a2 85 ae bd
       0.058051772 -0.050046444 -0.020919725 -0.08521582
000010 2e 2f 31 3d 26 48 90 bd fa 3d 07 3d b1 43 80 3d
       0.043257885 -0.07045011 0.03301809 0.06262911
000020 ca 10 89 bd 98 e4 71 3c e2 54 59 3d 54 05 c9 3c
       -0.066926554 0.014763974 0.053059466 0.024538673
000030 4c a3 a3 3c 00 b3 91 bb e1 b1 bd 3d 3b 3c c3 3d
       0.019975327 -0.0044463873 0.09262443 0.095329724
000040 70 22 4c 3c b0 74 7f bc ed 5f 4c bd dc fe f0 3c
       0.012459382 -0.015591785 -0.04989617 0.029418401
000050 a0 b5 57 bd e6 48 75 3d ed 9f 44 bd 52 b2 7c 3d
       -0.052663445 0.059883974 -0.04800408 0.061693497
000060 35 92 91 3d 86 91 a7 bd 7d 8c 29 bd f4 d7 ba bc
       0.07107965 -0.08182053 -0.041393746 -0.022808053
000070 60 c1 d3 bb 0a 6b 58 bd 32 0b 26 3d 47 81 2d bd
       -0.006462261 -0.052836455 0.04053802 -0.042359617
000080 18 57 93 3c 10 a5 5c 3c b2 58 29 3d a0 e6 e4 bc
       0.017985865 0.013467088 0.041344352 -0.027942002
000090 4c 5a e8 3c 7e b6 8f bd f0 00 04 3c a6 9b 42 3d
       0.02836337 -0.070172295 0.008056864 0.04751172
0000a0 98 2f 90 3c 8f f9 b1 3d 7a 3a 0e 3d da ad 7b bd
       0.01760082 0.08690178 0.034723736 -0.061445095
0000b0 de 4d 86 bd 63 40 ab bd 2c ec f4 bc c3 c8 c4 bd
       -0.06557821 -0.0836189 -0.029897772 -0.09608605
0000c0 d0 b2 ea bb b0 96 99 bd 0a 5f 23 3d 32 b0 75 3d
       -0.0071624294 -0.074994445 0.03988556 0.059982486
0000d0 f4 96 bd bc 70 5f 77 bd b8 42 b4 bc 5d 39 a9 3d
       -0.02314327 -0.06039375 -0.02200447 0.08262894
0000e0 1a 72 3f 3d 80 3c c8 bb 42 57 0b 3d b4 85 c2 bc
       0.046739675 -0.006110728 0.034018762 -0.023745395
0000f0 73 29 3f bd 18 a1 0c 3c 87 60 6a bd d3 90 c0 bd
       -0.04667039 0.00858333 -0.057220962 -0.09402623
000100 d0 70 5d bc 0e 43 01 3d 7c 87 87 bd a3 3c 36 bd
       -0.013515666 0.03155809 -0.066176385 -0.04449142
000110 c0 a7 0e bc 7d fb 99 3d 9a f6 05 3d 50 48 6b 3c
       -0.008706987 0.07518671 0.03270588 0.014360502
000120 ec c2 88 3c 98 ea 8d 3c b5 0a ba bd 34 3f b3 bc
       0.016694508 0.017323777 -0.090840735 -0.021880724
000130 00 9a c7 3c 09 57 b9 3d 4f 63 b3 bd a1 73 c4 3d
       0.024365425 0.09049804 -0.08759176 0.09592367
000140 5a 6e a6 bd 99 28 89 3d e8 44 0e 3c e3 af aa bd
       -0.08126517 0.066971965 0.008683421 -0.08334329
000150 a7 76 7a bd 00 cc 10 3b 95 bf a6 bd 4d d8 8d 3d
       -0.061148312 0.002209425 -0.0814201 0.06926022
000160 a2 2f 6b 3d 23 35 aa bd 00 c9 da 3b 8c c3 f4 bc
       0.057418473 -0.08310916 0.006676793 -0.0298784
000170 15 e4 af bd cd aa ac 3d 8d a7 38 bd 82 b2 7f 3d
       -0.08588425 0.08431015 -0.045081664 0.062426098
000180 b3 02 6d bd ca f7 92 bd 9d 66 b6 3d 18 25 93 bc
       -0.057863902 -0.07176168 0.08906291 -0.017962024
000190 0d 36 c0 bd c7 1e b3 3d 23 b8 8d 3d ed 0c b8 bd
       -0.09385309 0.08746105 0.06919887 -0.089868404
0001a0 d3 1e 5f bd 97 f8 b8 3d 94 c9 8f 3c 8f 17 ba bd
       -0.054472756 0.0903179 0.017552175 -0.09086525
0001b0 26 5c 31 3d d0 54 13 bc ca d1 7a bd 42 3a 12 3d
       0.04330077 -0.008992389 -0.061235227 0.03570009
0001c0 20 a3 e9 bb 56 1b a0 bd d2 bd 82 bd b4 58 d4 bc
       -0.0071300417 -0.07817714 -0.063838616 -0.025921203
0001d0 c4 34 01 bd b1 43 8b 3d fb 2b 95 3d 50 ea 81 bb
       -0.03154446 0.068000205 0.07283779 -0.0039647
0001e0 10 d2 a7 bd dc 2b 06 bd f3 2e 82 3d 82 c4 58 3d
       -0.08194363 -0.03275667 0.06356611 0.05292178
0001f0 58 61 13 3c 6c 85 10 bd 03 1e cb 3d 70 e4 c1 bd
       0.0089953765 -0.03528349 0.09917834 -0.09467399
000200 98 8f 07 3c d0 d8 ff 3b 0c 52 fb 3c 17 dd 9a 3d
       0.0082739815 0.0078078285 0.030678771 0.07561701
000210 77 d9 8a 3d 23 a7 47 bd 53 a7 8a 3d 57 8d b4 bd
       0.067797594 -0.04874338 0.06770196 -0.08816021
000220 4c 36 fb bc 36 59 a7 bd 8d 97 1c bd 68 55 80 bd
       -0.03066554 -0.081713125 -0.038230468 -0.0626629
000230 a3 12 71 bd 26 70 70 3d b2 ce c9 bd c8 f6 f5 bc
       -0.058855664 0.058700703 -0.09853877 -0.030024901
000240 48 27 8a 3c 0a 32 53 3d 81 1d a2 3d 51 76 ca 3d
       0.016864434 0.051561393 0.07915784 0.09885848
000250 33 55 41 bd e6 c9 21 3d a6 2c 54 3d 45 3a 9c bd
       -0.047200393 0.039499186 0.051800393 -0.076283015
000260 7b 33 af bd 70 ca 79 3c 7e ee 9f bd 38 e1 dd bc
       -0.08554741 0.015246019 -0.07809161 -0.027084932
000270 68 fd 82 bc 68 70 8d bd 68 07 5c bc 00 c7 5e ba
       -0.015989974 -0.069062054 -0.0134295 -0.0008498281
000280 db 06 c9 3d 47 f0 3e bd c2 49 34 3d 20 5d 9e bb
       0.09815761 -0.046615865 0.044015653 -0.0048328787
000290 60 18 2f 3b 6e 9f 4a 3d 28 d4 a9 bd 02 70 70 3d
       0.002671741 0.04946845 -0.08292419 0.05870057
0002a0 6d 93 73 bd 16 54 37 3d a2 9f 15 3d d1 aa c7 3d
       -0.059466768 0.044757925 0.03652919 0.097493775
0002b0 71 d5 ae 3d e4 4a f9 3c 88 8d e2 bc d0 5f 45 bc
       0.085368045 0.030431218 -0.027655378 -0.012046769
0002c0 92 ec 67 3d a7 60 4c bd 2e e4 56 3d 80 94 c1 bb
       0.056622095 -0.049896862 0.052463703 -0.005907595
0002d0 34 af b7 bc 98 0c a2 bc d9 6b c1 3d 32 20 7d 3d
       -0.02242241 -0.019781396 0.094443984 0.061798282
0002e0 34 c6 82 3c 39 50 ad 3d a8 34 17 bc b7 ff 93 3d
       0.015963651 0.08462567 -0.009228863 0.07226508
0002f0 a0 df 88 bb 00 9b c7 3c 97 eb 8f 3d 36 e5 04 3d
       -0.004177049 0.024365902 0.07027357 0.032445155
000300 4c 66 b6 bc 72 28 b0 bd 2c aa 88 3c 5b fc c9 3d
       -0.022265576 -0.08601464 0.016682707 0.09862586
000310 67 19 b7 bd 80 6e 99 bc 95 93 84 bd 81 f4 95 3d
       -0.08940392 -0.018729448 -0.064734615 0.07322026
000320 60 c4 4b bd d8 7b 48 bc fa dc 9e bd fb 22 bd 3d
       -0.049747825 -0.012236558 -0.07756992 0.092351876
000330 91 af aa 3d 90 fa 59 3c 97 65 cc bd 8a ed 34 3d
       0.08334268 0.013304368 -0.09980314 0.044171847
000340 0f 8e cb bd c3 61 b3 bd e2 1a 0c 3d f8 63 c8 bd
       -0.09939205 -0.08758881 0.034205325 -0.097846925
000350 40 f1 a9 3c de c2 a0 bd 76 91 57 3d c8 85 b9 bc
       0.02074492 -0.07849668 0.052628957 -0.0226468
000360 7b 4f b0 3d 30 78 fa bb e4 19 fc 3c db 2f c9 bd
       0.0860891 -0.007643722 0.030774064 -0.09823581
000370 3a 68 9c bd 39 36 8b 3d a0 78 3f 3b 30 dd db bb
       -0.07637067 0.067974515 0.0029216185 -0.006709717
000380 e8 90 40 3c 24 29 db 3c 5b 66 c3 bd 41 43 8f 3d
       0.011753298 0.026753016 -0.09541007 0.069952495
000390 ba 70 37 3d 8d 26 52 bd fa d6 07 bd 0a e7 02 3d
       0.04478524 -0.051306296 -0.033164002 0.031958617
0003a0 64 09 eb 3c 3d b6 96 bd 6e 62 32 3d 49 8c 84 3d
       0.028691001 -0.07358978 0.0435509 0.0647207
0003b0 9c 22 fe 3c 6d aa 4e bd 96 ff 03 bd a0 27 93 bc
       0.031022362 -0.0504555 -0.032226168 -0.01796323
0003c0 80 05 b6 3c 33 fa 95 bd 2c 7c da 3c 28 d3 ac bd
       0.02221942 -0.07323112 0.026670538 -0.08438712
0003d0 b1 02 87 3d 92 94 40 3d 82 e3 5c 3d 54 78 ce bc
       0.0659231 0.047016688 0.053927906 -0.025203861
0003e0 14 68 b3 3c d5 ba 93 bd eb e7 9e 3d 6c 14 d6 bc
       0.021900214 -0.0721337 0.077590786 -0.026132785
0003f0 3b a4 9c bd 38 aa b5 3c 60 1b 69 3b 0c 0a 16 bd
       -0.07648512 0.022175893 0.0035569295 -0.036630675

lstm.bias_ih_l0 f4 [400]
000000 26 ca de bd fc e1 41 3e 1b 1c fa bd 75 ac e1 3e
       -0.108784005 0.18933862 -0.12212392 0.44076887
000010 03 1f a0 3e 80 a8 09 3e 22 53 54 be eb 4a f0 bd
       0.3127366 0.13443184 -0.20734838 -0.117330395
000020 4f bb f5 3e e5 48 73 bc 93 56 fc 3c 5c aa b8 bc
       0.47994468 -0.014848922 0.030803 -0.022542171
000030 8f 42 a0 3e 74 af 72 3e 9c 95 eb 3e d3 8a 02 be
       0.3130078 0.23699743 0.4601258 -0.1274827
000040 95 3a e3 bd bf cc e5 3d 80 22 db 3d 9e f7 e7 3d
       -0.11095158 0.11220693 0.1069994 0.11326526
000050 6b 8b eb 3d 5a d2 12 be 65 16 aa 3e 9f f1 0c bd
       0.11501201 -0.14338055 0.3322021 -0.034410115
000060 5b 70 2f 3e 41 04 6e 3d af 1d 52 3e 65 af 63 be
       0.17132704 0.058109526 0.20519136 -0.22234876
000070 7f 67 6c 3e c3 5a 4a 3e be 7d 42 3e ee 1e a0 3d
       0.23086356 0.19761185 0.1899328 0.07818399
000080 78 d7 60 38 1c ac fd bd fa ed 29 3e 1f fd b2 bd
       5.3606433e-05 -0.12386343 0.16594687 -0.08739685
000090 cb 0a a7 3e 30 05 1c bd 68 7b a4 be c5 58 74 3d
       0.32625422 -0.038090885 -0.32125401 0.05965497
0000a0 d6 3b e5 bc 3e 5f 13 be 15 71 01 be f4 95 9a bd
       -0.027982634 -0.14391801 -0.12640794 -0.075481325
0000b0 fb 06 27 3e 6c 00 ce 3d 83 4d 8f 3e 1b 72 14 bd
       0.16311257 0.10058674 0.27988824 -0.036241632
0000c0 c5 bd 10 be fd fa 4f 3e a1 9b 0b be aa f6 fa bd
       -0.14134891 0.20310588 -0.13633586 -0.12254079
0000d0 5a ec 17 3f 18 84 10 3e d5 8e 3f 3e 11 e5 98 3d
       0.5934502 0.1411289 0.1870683 0.07465566
0000e0 28 ef 93 3d e9 32 ad 3e e9 3a 2d 3e 39 2e 84 3c
       0.0722335 0.33827904 0.16917004 0.016135322
0000f0 d5 ea a2 bd c6 63 0e be 50 04 76 3d 05 40 90 bd
       -0.07954947 -0.13905248 0.060062706 -0.07043461
000100 d4 aa a2 bd 67 41 1b 3d a6 bb a2 3e be cc 3e 3e
       -0.07942739 0.03790417 0.3178379 0.1863279
000110 f6 59 42 3e db 1f ef 3e 65 39 fe bc 82 00 40 be
       0.1897963 0.4670399 -0.031033227 -0.18750194
000120 cb 48 31 be 15 c3 01 3f a1 00 16 bd 9e f3 0d be
       -0.17312925 0.50688297 -0.036621694 -0.13862464
000130 9f f6 1b 3d 96 83 ea 3d 8e 0a 53 bd d3 d7 05 3e
       0.038076993 0.11450879 -0.051523738 0.13070612
000140 a6 70 9f 3c 5e 83 a4 be 1b 87 e0 3c 3a ba 13 3c
       0.019462895 -0.32131475 0.027408173 0.009016568
000150 96 ac fc bd 3e 86 19 3d 9d 6e 05 3f 88 dd 23 3f
       -0.12337606 0.03748154 0.5212191 0.64009905
000160 14 23 77 3e 28 a7 16 3e d1 27 13 3e 2e fd ca 3d
       0.24134475 0.14712203 0.14370658 0.099115714
000170 8b e2 07 3e 6f 96 37 3d 22 8e 8a bd 89 9e 95 bd
       0.13270013 0.0448212 -0.06765391 -0.07305629
000180 a1 25 f4 bd 17 13 3e 3e 9f 37 03 be 17 81 b9 3e
       -0.1192124 0.1856197 -0.12814187 0.362313
000190 49 57 9b 3d 52 00 52 3d cf f3 c0 3d 8a 4c b4 bd
       0.07585008 0.051269837 0.09421503 -0.08803661
0001a0 89 be b7 3d 20 71 cc 3b 40 47 fe 3a b8 be d6 bc
       0.089718886 0.0062390715 0.0019399896 -0.026213989
0001b0 00 32 54 3b d1 72 96 3d 58 7d b5 bc 91 35 8c 3d
       0.0032378435 0.07346118 -0.022154495 0.068461545
0001c0 52 62 7e 3d 70 05 0d bd 31 35 84 3d 3c 16 06 bd
       0.062105484 -0.034429014 0.06455458 -0.032736048
0001d0 fb 5a ad 3d 9f 1d ad bd b0 1f ea 3b dc 03 14 bd
       0.08464619 -0.084529154 0.0071448907 -0.036136493
0001e0 ec b6 c2 bc 2a 36 48 bd 70 fc 5c 3c e5 10 82 3d
       -0.023768865 -0.04887978 0.01348792 0.063508786
0001f0 71 9f b9 3d 00 a7 c3 bb 13 ee 3e bd 03 a0 83 3d
       0.09063614 -0.0059708357 -0.046613764 0.06427004
000200 88 09 be bc d5 e5 87 3d 96 b4 4b 3d 48 f7 c6 bd
       -0.023197904 0.06635634 0.049732767 -0.09715134
000210 a6 04 0c 3d 40 af 2d bb 49 99 bc 3d c0 5e 21 3b
       0.03418412 -0.0026502162 0.09208924 0.0024623126
000220 d5 0f c0 bd 2c 69 12 bd f6 05 19 bd ec 76 a2 bc
       -0.0937802 -0.03574483 -0.0373592 -0.019832097
000230 72 af 62 3d 4b b7 92 bd a1 b1 c2 3d 2b 10 a7 bd
       0.0553431 -0.071638666 0.09506536 -0.08157381
000240 64 3f f1 3c 90 14 48 bd 90 59 42 bc 40 90 c7 3c
       0.029449172 -0.048847735 -0.011862174 0.024360776
000250 15 6e b2 3d 41 46 9f 3d 2c c5 90 bc ad 3e 9e 3d
       0.08712403 0.07777072 -0.017672144 0.07726798
000260 df 34 bc 3d 0e 98 75 3d 7e 1b 2d 3d 80 db b5 bb
       0.09189772 0.059959464 0.042262547 -0.005549848
000270 91 12 9e 3d 00 ca c2 bd 1d 0b 74 bd 61 2f 93 3d
       0.07718385 -0.09511185 -0.05958091 0.07186771
000280 3a 43 44 bd 00 ec d9 3a a8 8e 70 bc 98 07 76 3c
       -0.047915675 0.001662612 -0.014682449 0.015016459
000290 20 f6 e0 3b c0 38 e0 bc 74 6f b0 bc cb 38 9a 3d
       0.006865278 -0.02737081 -0.02153752 0.07530364
0002a0 55 93 b3 3d 25 da 9a bd fe 73 01 3d 78 a9 92 bd
       0.08768336 -0.07561139 0.03160476 -0.0716123
0002b0 42 db 2e 3d f8 82 98 bd cb bd a7 3d 11 c5 82 3d
       0.04268957 -0.07446855 0.08190497 0.06385244
0002c0 2a 99 42 bd 18 0d b0 3c d6 b2 29 3d 11 a1 a7 3d
       -0.04750935 0.021490619 0.041430317 0.08185018
0002d0 30 f4 58 bc fb 2e ac 3d 50 ea 53 3c ab ce 9e bd
       -0.013241813 0.08407398 0.012934282 -0.077542625
0002e0 da 6f 4f bd 40 89 0a bd 10 f3 54 bc a8 c1 b8 bc
       -0.05064378 -0.033822298 -0.012997404 -0.02255328
0002f0 de 84 56 3d 3c ee e5 3c e0 7f 82 3c c3 2f 8b 3d
       0.052372806 0.0280677 0.015930116 0.06796219
000300 e8 e5 1d bc 5d 70 5e bd a2 23 63 3d 08 53 b9 bc
       -0.009637333 -0.054306377 0.055453904 -0.0226226
000310 32 67 68 3d 94 36 9a bc ba 51 50 3d 2f 8b b2 bd
       0.05673904 -0.018824853 0.05085919 -0.087179534
000320 8e 39 cb 3d b1 b3 b2 3e 7d 5f b8 be 20 a9 38 bf
       0.09923087 0.3490272 -0.36010352 -0.72133064
000330 2f c6 12 bf 5b a7 67 be bc cf 0f bd 4e 21 98 be
       -0.57333654 -0.22622435 -0.03511022 -0.2971291
000340 fd bb 3d 3f fe ca 28 be a6 63 8a be d6 83 a7 be
       0.7411497 -0.16483685 -0.2702915 -0.3271777
000350 a2 88 1e bf fc e2 bc be 74 e1 16 3f 6d 48 ef 3d
       -0.61927235 -0.36891925 0.58937764 0.11683736
000360 24 75 1b 3e b4 95 b5 3e a6 2c b2 be 3b 1b 75 be
       0.15181404 0.35465777 -0.3479969 -0.23936169
000370 e3 38 f0 be 52 90 94 be f2 c8 08 bf ac ff ad 3e
       -0.469184 -0.29016358 -0.5343162 0.33984125
000380 9b b8 e5 3e 04 b1 98 be 1d 39 c6 be 2f 04 6f bd
       0.44867405 -0.29822552 -0.3871545 -0.0583536
000390 e9 a1 e9 3e 06 cf b8 3e fa 77 c0 3e 58 5f 97 3e
       0.4563134 0.36095446 0.37591535 0.2956493
0003a0 f2 a2 bd 3e 02 b5 1f 3e 4b 42 8e 3e fe 42 56 be
       0.3703838 0.15596393 0.27784953 -0.20923993
0003b0 b5 46 12 3f 36 11 84 be c5 a6 4c bd 95 56 65 3e
       0.5713914 -0.2579438 -0.04996373 0.2239631
0003c0 cc e6 2e be 3c a8 18 3d 70 06 46 3e fb 54 ca bc
       -0.1708023 0.037269816 0.19338393 -0.024698725
0003d0 82 d4 fa be 3a f6 71 be 95 47 fb be 61 e8 25 3e
       -0.48990256 -0.23629084 -0.4907805 0.16201927
0003e0 b7 c2 bf be 36 19 d0 be 71 61 91 3e b4 42 54 be
       -0.37453243 -0.40644234 0.28394654 -0.2072857
0003f0 b1 39 33 3f b8 f4 89 3e 5d 25 f6 be f9 2a 78 be
       0.70009905 0.26944518 -0.4807538 -0.24235143

lstm.bias_hh_l0 f4 [400]
000000 b1 76 ee bd f4 20 87 3d 31 f2 4c be 49 45 ef 3e
       -0.11643732 0.06598082 -0.20014264 0.46732548
000010 83 40 c3 3e 27 3e b1 3c 06 33 35 be 0c 03 a7 bd
       0.38135156 0.021636082 -0.17695245 -0.08154878
000020 49 89 c1 3e b2 09 ec bb 83 68 ae bd 62 a0 bb bc
       0.37800053 -0.007203304 -0.08516028 -0.022903625
000030 f3 44 3c 3e f2 f2 21 3e c2 ce d4 3e 60 c1 a5 bd
       0.18385677 0.15815333 0.41563994 -0.08093524
000040 83 9f 2c bd a7 e4 b9 3d 02 07 1f 3e c6 5b 0d bd
       -0.04214431 0.09076815 0.15530017 -0.03451135
000050 0a 38 00 3e a8 85 c7 bc 83 2c a3 3e fb 14 0b bd
       0.12521377 -0.024355724 0.31869897 -0.033955555
000060 ff 0b 73 3e fb 2b ee 3c 19 4e 47 3e bb 29 84 be
       0.23735045 0.029073706 0.19463386 -0.25813088
000070 05 df 0c 3e fa 0b aa 3d 54 82 36 3e e6 e3 1f 3e
       0.1375695 0.083030656 0.17823154 0.1561428
000080 34 14 2b 3e 37 65 2a be 0e 0b 5f 3d 0f 44 2b be
       0.16706926 -0.16640173 0.054453902 -0.16725181
000090 db ee a4 3e d2 3f 7d 3d c8 1f e5 be 86 27 af 3c
       0.32213482 0.061828442 -0.4475081 0.02138115
0000a0 a5 5f a2 bc e3 b5 3e be c5 18 05 be d9 d2 1c be
       -0.019820997 -0.18624072 -0.1299773 -0.15314807
0000b0 6c d9 bc 3c 26 28 8b bc 26 5c 65 3e 3a 24 77 bb
       0.023052894 -0.016986918 0.22398433 -0.0037710802
0000c0 de fa 5d bd b9 ad 4e 3e 30 b8 9e bd 3e e7 37 bc
       -0.054194324 0.20183457 -0.07749975 -0.011224566
0000d0 4d 6f 0a 3f 46 96 53 3d 23 9c 5f 3e 47 26 f4 3d
       0.5407608 0.051656984 0.21836905 0.11921363
0000e0 9e 7c 02 3e 97 d0 9f 3e 8d c6 36 3e 90 3a 28 3c
       0.1274285 0.3121383 0.17849179 0.010267869
0000f0 27 32 b0 3d 61 8d 65 bd 92 c4 35 bd 2b 9d 98 bd
       0.08603316 -0.056043033 -0.044376917 -0.074518524
000100 84 81 e2 3d ca c5 64 3d 6a 9d 8c 3e 1d 25 b8 3d
       0.110598594 0.05585269 0.27463847 0.08991454
000110 02 9d 5c 3e a2 f0 11 3f 74 c2 1f 3e b1 51 36 be
       0.21544269 0.570078 0.15601522 -0.178046
000120 76 d6 0b be df 05 fa 3e fc a7 88 3d 9f 8a 70 bd
       -0.13656029 0.48832604 0.066726655 -0.05872595
000130 8b ec 69 3c bd 2e 98 3e 03 cd 07 bd c7 36 85 3e
       0.014277588 0.29723158 -0.0331545 0.26018354
000140 1d 85 66 3d 42 e5 9c be d8 6a d3 bc a1 bf 63 3d
       0.05627929 -0.3064366 -0.025807783 0.055602673
000150 16 d0 8b bd bd 9e 4b 3c 0d 8a d2 3e 7a 13 3e 3f
       -0.068267986 0.012427983 0.4112095 0.7424847
000160 e8 b8 07 3e 32 d0 47 3e 37 b2 10 3e e3 b8 0a bd
       0.1325413 0.19513014 0.14130484 -0.033867728
000170 33 8d 84 3d 3f f1 07 bd 96 c3 05 bd 1d 23 35 be
       0.06472244 -0.033189055 -0.03265723 -0.17689176
000180 0f 53 dc bd 01 ab 40 3e 88 22 38 be 07 f6 bf 3e
       -0.1075803 0.18815233 -0.17981923 0.3749239
000190 26 83 44 3d 17 c4 c8 3d 80 09 2a 3a 02 e9 6c 3d
       0.047976635 0.09803026 0.0006486401 0.0578394
0001a0 54 f5 a9 3c ba a6 93 bd 60 da 28 3b 58 f1 7c 3c
       0.020746864 -0.07209535 0.0025764927 0.0154384
0001b0 ff fb 97 3d 18 ad a2 bd a0 23 35 bb a8 64 2b 3c
       0.07421111 -0.07943171 -0.0027639642 0.01046101
0001c0 9a b9 5f 3d 10 8a 26 bc 7d 2a bf bd a0 4e ae 3c
       0.054620363 -0.010164753 -0.09334276 0.021277726
0001d0 00 84 65 ba 80 71 a9 bc b5 66 8c 3d a9 f9 be 3d
       -0.0008755326 -0.020684004 0.06855527 0.09324963
0001e0 50 94 23 bc 14 90 b4 3c b0 99 7d bd 52 d3 76 3d
       -0.009984091 0.022041358 -0.061914146 0.060260125
0001f0 c0 c0 a8 3c 88 27 84 bd 83 92 c6 bd 91 b8 88 3d
       0.020599723 -0.064528525 -0.09695914 0.06675828
000200 82 bd 29 3d cc e6 a4 3c 84 7d ef 3c 34 03 84 bd
       0.041440494 0.020129584 0.029234655 -0.064459234
000210 07 73 bd 3d ea 32 47 3d 4a ce a8 bd 8b 33 93 3d
       0.09250455 0.04863254 -0.082424715 0.071875654
000220 ca 77 1f 3d 48 4c 8d bd a7 e2 45 bd 0b 17 94 bd
       0.0389326 -0.06899315 -0.048311856 -0.072309576
000230 d0 14 46 bc 74 1d c9 3c 5a 02 56 3d 7b 8c aa 3d
       -0.012089923 0.024550177 0.052248336 0.08327576
000240 f6 36 99 bd a7 ec bd bd 08 b5 a9 bc b0 98 a7 3b
       -0.07481186 -0.092736535 -0.020716205 0.0051146373
000250 91 1d af 3d 77 9b 73 bd a2 d3 0e 3d 55 90 9b 3d
       0.08550561 -0.059474435 0.034869798 0.075958885
000260 00 05 f1 39 98 21 08 bc 99 43 8d 3d e8 e1 a3 3c
       0.00045970827 -0.008308791 0.06897659 0.020005181
000270 39 56 b3 3d c0 9d b0 bd 1e 24 04 3d d2 50 3b 3d
       0.0875668 -0.086238384 0.032261007 0.045731373
000280 20 3c 78 bd c5 0d a1 3d e8 9e ef bc 00 85 fe b9
       -0.060604215 0.078639545 -0.029250577 -0.00048545748
000290 d1 df cb 3d 54 55 92 bc 38 c1 e6 bc d9 40 b0 3d
       0.09954799 -0.017862953 -0.028168306 0.08606119
0002a0 68 59 35 bc 99 1f 97 3d a2 ca 21 3d da 07 c9 bd
       -0.011068679 0.07379074 0.039499886 -0.09815951
0002b0 a0 59 a2 3c 80 29 a6 3a 8d c1 af bd ba d1 2b bd
       0.019818127 0.0012677163 -0.08581839 -0.041948058
0002c0 88 ae ad bd eb 3a a4 bd c2 6f 07 3d b0 e8 3c bc
       -0.08480555 -0.0801905 0.033065565 -0.011530086
0002d0 58 cd 5f bc cc 5d cc bc 93 02 b9 bd 49 60 cc 3d
       -0.013659798 -0.02494707 -0.09033694 0.099793024
0002e0 50 0d cd 3b 00 ab 5f ba 75 0c 9a 3d e0 66 ed bc
       0.0062576905 -0.0008532256 0.07521907 -0.028979719
0002f0 c6 78 3b 3d d4 d1 b9 bc 10 9d 3f bd 40 ae 7d 3b
       0.045769475 -0.022683062 -0.046780646 0.0038708597
000300 40 90 e9 bc c3 dd 26 bd 80 f8 d7 bc 95 29 bc bd
       -0.028511167 -0.040738832 -0.026363611 -0.09187619
000310 50 bb 97 bb 80 8a 60 3c 40 e3 ba bc a8 89 95 bd
       -0.0046304837 0.013704896 -0.02281344 -0.073016465
000320 a2 aa 28 3e d7 b0 03 3f 43 6f 83 be 00 d4 33 bf
       0.16471341 0.5144171 -0.25670823 -0.7024536
000330 6d ba 12 bf a2 a3 9f be 02 0f f5 bd 74 50 97 be
       -0.57315713 -0.3117953 -0.11965753 -0.29553568
000340 0f 80 43 3f 92 ba a7 be 6c b0 a0 be 00 49 5c be
       0.76367277 -0.3275953 -0.313846 -0.21512222
000350 92 21 0b bf e2 1a b0 be 39 84 29 3f 11 06 48 3e
       -0.543481 -0.3439551 0.6621738 0.19533564
000360 cb a7 8b 3e e2 ca a9 3e c6 c5 dc be b6 d5 c9 be
       0.27276453 0.331626 -0.4311964 -0.3942086
000370 bf cf f3 be a8 e0 59 be ed 1c f1 be 60 5f df 3e
       -0.47619435 -0.21277106 -0.4709238 0.43627453
000380 97 17 ea 3e 01 43 88 be 83 5a f7 be c3 b4 a8 bd
       0.45721123 -0.2661362 -0.48311242 -0.082376026
000390 1f 85 ef 3e 64 e7 9c 3e 86 09 ab 3e f2 2f cf 3e
       0.4678125 0.30645287 0.33405703 0.40466267
0003a0 76 4e c5 3e c2 2f 4c 3e 71 4f b1 3e c2 6f 6d be
       0.38536423 0.19940093 0.3463092 -0.23187163
0003b0 f9 74 1b 3f da 8d 89 be c9 b7 f6 3c ac ff b4 3e
       0.6072536 -0.26866037 0.030116932 0.35351312
0003c0 8f cd 9d be 1e e6 28 3c 1e c2 5a 3e bd 1c c1 bd
       -0.3082089 0.01030877 0.21363112 -0.094293095
0003d0 c3 7e 0a bf 45 6f ba be b1 89 f9 be 67 24 85 3e
       -0.54099673 -0.36413017 -0.48737863 0.26004335
0003e0 2d 5a 71 be 80 7f cc be 16 fd 63 3e 52 81 a4 bd
       -0.23569556 -0.39941025 0.22264513 -0.080324784
0003f0 f4 bf 4f 3f dc 54 bc 3e 8f 39 1c bf fc 22 e0 be
       0.8115227 0.36783493 -0.6102533 -0.4377669

linear.weight f4 [2, 100]
000000 7f 6b 9c 3a ee 42 2f ba fe b1 25 ba 45 4f cb ba
       0.0011933892 -0.00066856935 -0.00063207734 -0.0015511295
000010 b7 31 ae 3b 4b 5c d6 bc fc 1e 92 bb bc 1d 6b 3a
       0.005315985 -0.026167056 -0.00445926 0.00089689693
000020 8c 63 68 3a 90 23 42 bb 72 8a a2 38 c5 56 45 bb
       0.00088649313 -0.0029623248 7.7505494e-05 -0.0030111533
000030 14 a8 fa 3a b9 9f d1 3c 3d cc 11 bb 64 8b b1 b9
       0.0019123578 0.025588857 -0.002224698 -0.00033863925
000040 be 6e 8b 39 59 96 03 3d b7 4c 65 bc 88 b9 20 3d
       0.00026594655 0.032125805 -0.013995341 0.039239436
000050 fe 49 b4 3c 6f 05 1b 39 03 41 70 3c 73 43 3a ba
       0.022007938 0.00014783976 0.0146639375 -0.00071053876
000060 50 d7 c1 3c ff ae e1 bc bf 7d b3 3c f2 e8 ef 38
       0.02366224 -0.027549265 0.021910546 0.000114397975
000070 62 58 e7 bb 7c 36 d6 bb 5a b6 0b 3d 9d bb 3d 3d
       -0.0070600966 -0.0065372568 0.03410945 0.0463215
000080 41 0f 84 3d b1 bb b6 3a 20 51 d2 bc 5e be 3a 3c
       0.06448222 0.0013941434 -0.025673449 0.011397926
000090 a9 42 44 ba c6 b0 7c 3b 02 4c dd 3a a9 4b 93 3c
       -0.000748674 0.0038557514 0.0016883614 0.017980414
0000a0 9c a2 57 3a ca 01 bd 3b 36 4a d8 3b ea d2 c6 b9
       0.000822583 0.0057680355 0.0066006435 -0.00037922646
0000b0 a8 43 3e bb ef 3b 0e 3d 78 7f f5 ba cc 60 0a 3a
       -0.0029032025 0.034725126 -0.0018730005 0.0005278706
0000c0 59 e0 27 bb 36 13 21 bc 00 49 19 3b b7 b7 45 3c
       -0.00256159 -0.00983124 0.0023389459 0.012067727
0000d0 30 c6 30 b9 60 42 ec 3c d7 17 c5 3b fa 88 0a 3c
       -0.00016858499 0.028840244 0.006014805 0.008455509
0000e0 f3 ef 4b 3d 1b d3 9d 3b 46 24 a3 bc c9 fc 1b bb
       0.04978938 0.0048164255 -0.019914757 -0.0023801795
0000f0 c6 62 1f bb 71 d3 7f bb 6c bb 65 3a 1a 78 bb 3b
       -0.0024320348 -0.003903594 0.0008763585 0.0057211043
000100 c4 ea 1d 39 fa 6e ce bb 28 23 31 3a 36 b2 f5 bb
       0.00015060144 -0.0062998505 0.0006757253 -0.007498051
000110 51 3b 3d 3c 62 9a c8 b9 4f a0 9b bb d0 2a a4 b9
       0.011549787 -0.00038261997 -0.004749335 -0.00031312415
000120 08 2a b2 ba b1 7d a7 ba eb 8c 54 3d ff 73 3a 3b
       -0.0013592849 -0.0012778548 0.051892202 0.0028450487
000130 aa 14 9b 3c 97 81 e6 b9 2f de 89 3a b4 80 c9 39
       0.018930752 -0.0004396557 0.0010518486 0.000384336
000140 0f d5 ea bc 47 58 ca 3a 45 3a ae ba 98 c7 94 bc
       -0.028666047 0.0015437686 -0.0013292512 -0.01816158
000150 b9 3c ab ba 76 3c 90 3c 1e 33 8b ba af 53 8f b9
       -0.0013064361 0.017606955 -0.0010620093 -0.00027337435
000160 1c db 07 3b 35 77 9c bc 79 51 a9 bc b5 91 25 bd
       0.0020729965 -0.019099811 -0.020668732 -0.04042216
000170 44 b8 92 bc f1 64 c6 bc f8 9b be b9 38 ef c0 ba
       -0.01791013 -0.024218054 -0.0003635583 -0.001471973
000180 c3 13 9f 3b 1a 03 01 3b 85 48 07 ba d7 63 13 3b
       0.0048546507 0.0019685687 -0.00051606476 0.002248993
000190 68 e9 e5 bd 54 c8 4b be 6e a4 04 3e 34 e8 b9 3e
       -0.11226159 -0.19900638 0.1295335 0.3630997
0001a0 9f e1 9b 3e 63 3b 3a 3e 9a 89 c8 3d cb db 98 3e
       0.30445573 0.18186717 0.097918704 0.2985519
0001b0 fc 5b 99 be 0f a2 08 3e c4 7a 8e 3e cd cf 23 3e
       -0.2995299 0.1334307 0.27828038 0.15997238
0001c0 30 59 64 3e c1 9a 8e 3e b5 af a4 be 8b db 94 be
       0.22299647 0.27852443 -0.32165304 -0.29073748
0001d0 c6 f1 91 be c3 d3 5a be 21 6d 62 3e 69 85 32 3e
       -0.2850477 -0.21369843 0.22111942 0.17433704
0001e0 41 93 8d 3e ec 5c 4a 3e 6b 83 b9 3e 1e e2 60 be
       0.27651408 0.1976201 0.36233076 -0.21961257
0001f0 48 cb 9d be 69 9c 4e 3e 59 71 86 3e 5c 5b b8 3c
       -0.30819154 0.20176853 0.26258352 0.022504501
000200 2e 9b 9a be fa 8f 91 be 03 7d a5 be c6 b3 87 be
       -0.30196518 -0.28430158 -0.3232194 -0.26504344
000210 af 80 96 be de 0f 07 be ab f2 31 be a3 46 23 3e
       -0.29395053 -0.13189647 -0.17377727 0.15944915
000220 66 fa 87 be 18 b7 51 3e f1 b9 29 bd 04 87 42 be
       -0.26558226 0.20480001 -0.041437093 -0.18996817
000230 4e 88 11 3e 92 ba fb bc 2e f8 76 be 2a 1f 52 3d
       0.14212152 -0.030728612 -0.2411811 0.05129925
000240 2c 50 38 3e ae 54 48 3e c3 7e 88 3e 1d 7e 2d be
       0.17999333 0.19563553 0.26659212 -0.1694264
000250 e4 e9 9c 3e 09 11 84 3e df c1 5e be 0b cb 3f 3e
       0.30647194 0.25794247 -0.21753643 0.18729798
000260 9a f3 af be f2 fe 86 be 1f bf a1 3e 19 8e 8f 3e
       -0.3436554 -0.26366383 0.31591126 0.280381
000270 0f d6 15 be 72 4c bf 3e 05 8b 50 be fe 9a 4e be
       -0.14632438 0.3736301 -0.20365532 -0.20176312
000280 c1 2d 71 3e 11 3e 0b 3e d5 4d a2 3e fd 57 46 be
       0.2355261 0.13597895 0.31700006 -0.19369502
000290 56 cd 64 be 2f 72 44 be f9 33 87 3e c6 61 72 be
       -0.22343954 -0.19184183 0.2640684 -0.2367011
0002a0 b3 d9 7f be f1 64 a2 3e 0a e9 6e be 0d fb c9 bd
       -0.2498539 0.31717637 -0.23331085 -0.09862337
0002b0 a8 a6 26 3e e6 fd bc 3e 3c ce 1f 3e 4f f1 b1 bd
       0.16274512 0.3691246 0.15606016 -0.08688604
0002c0 85 d4 64 be ee 00 73 3e 3b 87 58 be 4d 5b 9a be
       -0.22346695 0.23730823 -0.21145336 -0.30147782
0002d0 1b be 3b be 2c 5f 1d be 41 e9 6c 3e ea 94 3a be
       -0.18334238 -0.15368336 0.23135854 -0.18220869
0002e0 4f 53 fe bd dc 83 2e be e2 c9 a7 3e 63 65 c4 be
       -0.124182336 -0.17042488 0.32771212 -0.38358602
0002f0 25 1f 97 be 2b 09 82 3e 1c 19 8d be ba 16 17 be
       -0.2951595 0.2539762 -0.2755822 -0.14754763
000300 49 87 77 3e 47 1e 1d be 55 a1 97 be 85 5d 75 3e
       0.24172701 -0.15343581 -0.29615274 0.23961456
000310 61 00 0b 3e 15 84 71 be 49 3b 15 3e 7d 7f 8c be
       0.13574363 -0.23585542 0.14573397 -0.27441016

linear.bias f4 [2]
000000 40 2f 2d 39 38 e2 ab be
       0.00016516168 -0.3357103
