saved_models/mlp.pth (torch, 69654 bytes, 14 tensors)

l1.weight f4 [100, 47]
0	0x3db9dde1	0.09075523
1	0xbd8d910b	-0.069124304
2	0xbe08d824	-0.13363701
3	0x3dd2dda0	0.10296178
4	0xbdb876b0	-0.09007013
5	0xbe2d895f	-0.16946934
6	0xbe26a91a	-0.16275445
7	0x3db7167d	0.08939836
8	0x3e0e43ea	0.13893095
9	0xbcfe016b	-0.031006536
10	0xbddfcc56	-0.10927646
11	0xbd2d5179	-0.042314027
12	0x3e06a041	0.1314707
13	0x3d4593f8	0.048236817
14	0x3d4d4878	0.05011794
15	0x3da53540	0.08066797
16	0x3d8ab696	0.06773107
17	0xbc1d2ba3	-0.009592923
18	0xbd50c944	-0.05097319
19	0x3c73c596	0.014878651
20	0x3d01f8ba	0.031731345
21	0x3db4a3e5	0.08820323
22	0x3e019b14	0.12656814
23	0xbc26057e	-0.010133145
24	0xbce73dfd	-0.0282278
25	0xbdf61965	-0.12016562
26	0xbd4a4d10	-0.0493899
27	0x3dcc9e88	0.09991175
28	0x3d6cc46c	0.05780451
29	0xbde1f36b	-0.110327564
30	0xbd1251a1	-0.03572238
31	0x3de06add	0.109578826
32	0xbc830b6c	-0.015996657
33	0x3d9ce2be	0.07660435
34	0xbc680351	-0.014160947
35	0xbca84922	-0.020542685
36	0xbde3638c	-0.111029714
37	0x3c347b37	0.011015705
38	0xbc3e1db5	-0.011603762
39	0xbca737f0	-0.020412415
40	0xbb6f76cb	-0.0036539312
41	0xbd7555a6	-0.059896134
42	0xbbd4d8cb	-0.0064955703
43	0x3d122cc1	0.035687212
44	0xbe121e7e	-0.14269444
45	0x3d9f5cec	0.07781395
46	0xbe38981b	-0.18026774
47	0x3d126d82	0.035748966
48	0x3df1feb1	0.11816157
49	0x3ce81b91	0.028333457
50	0x3de1380c	0.10997018
51	0x3e2c305d	0.16815324
52	0x3d620ab0	0.055185974
53	0x3d3f0e3b	0.04664443
54	0xbe0f3bde	-0.13987681
55	0xbe03cbd7	-0.12870727
56	0xbda0d412	-0.07852949
57	0x3c3a3f84	0.011367682
58	0xbd731c24	-0.05935301
59	0x3def27b1	0.116774924
60	0x3df6085e	0.12013315
61	0x3cc17733	0.023616409
62	0xbdd3a14b	-0.103334986
63	0xbd1aa989	-0.037759338
64	0xbda13b1a	-0.07872601
65	0xbd821cee	-0.06353174
66	0x3de5812d	0.11206279
67	0x3d30d107	0.043168094
68	0xbcd7dea8	-0.026351288
69	0xbd2aa2a9	-0.04165903
70	0x3d4de930	0.050271213
71	0x3ce5212c	0.02796992
72	0x3d819a69	0.063282795
73	0xbe14ef31	-0.1454437
74	0x3ca8d597	0.02060966
75	0xbd69010b	-0.05688576
76	0x3dae5eea	0.08514197
77	0x3c0b497c	0.008501407
78	0xbd53752e	-0.051625423
79	0xbcbb78e3	-0.022884792
80	0x3d97cb32	0.07411803
81	0xbe3b66cd	-0.18300934
82	0x3dadf1d8	0.08493394
83	0x3c66d118	0.014087938
84	0x3d935dd2	0.07195629
85	0xbc6d802f	-0.014495893
86	0x3db191e1	0.08670402
87	0x3d189334	0.03724976
88	0xbdf37bd1	-0.118888505
89	0x3d9fb47a	0.07798095
90	0xbcab2639	-0.02089225
91	0x3df81f18	0.12115306
92	0xbd455c06	-0.048183464
93	0xbe08d892	-0.13363865
94	0x3e09687e	0.13418767
95	0x3e17313b	0.14764874
96	0xbdad904f	-0.0847479
97	0x3df14fe8	0.11782819
98	0x3b809d6c	0.003925016
99	0xbddc1465	-0.107460774
100	0x3cdd7d0d	0.027037168
101	0xbe0b9dff	-0.1363449
102	0x3dc3fd1f	0.095697634
103	0x3d6357d0	0.055503666
104	0xb9885875	-0.00026005847
105	0xbdd132ff	-0.10214805
106	0xbdbeb29c	-0.09311411
107	0xbdf1e6e1	-0.11811615
108	0xbd2e6b9f	-0.042583104
109	0x3dbfe0be	0.09369038
110	0x3d24e4ad	0.040257145
111	0x3df424ff	0.11921119
112	0xbe019fba	-0.12658587
113	0x3d3ffcc1	0.046871904
114	0xbdd88e43	-0.10574009
115	0xbd84bf9a	-0.064818576
116	0x3d815aeb	0.06316169
117	0x3dfa0511	0.122079976
118	0xbd72ef41	-0.0593102
119	0xbe0e0e39	-0.13872613
120	0x3e01dc2e	0.12681648
121	0x3d606c9f	0.05479109
122	0xbe1c6129	-0.15271439
123	0xbb8e626e	-0.00434523
124	0xbd9b0011	-0.07568372
125	0x3d8fb27b	0.07016464
126	0xbb882372	-0.004154616
127	0xbd9e11e0	-0.07718253
128	0x3b899c0f	0.004199512
129	0x3d93f4c3	0.07224419
130	0x3dfa2372	0.12213792
131	0xbdf0b30b	-0.117529
132	0xbcb77957	-0.022396727
133	0xbc993375	-0.018701294
134	0x3d44da4e	0.048059754
135	0xbaedcb32	-0.0018142222
136	0xbc04e5b7	-0.008111409
137	0x3d74a450	0.059727013
138	0xbd5831c6	-0.052781843
139	0xbe07f8d4	-0.13278514
140	0xbdb04bf7	-0.08608239
141	0xbd3a9684	-0.0455537
142	0x3dd3c993	0.103411816
143	0x3db0b152	0.08627571
144	0x3e093188	0.13397801
145	0xbdf2fd51	-0.118647225
146	0x3da81754	0.082075745
147	0x3d852397	0.06500929
148	0xbcf88764	-0.030337997
149	0x3d83f8fc	0.064439744
150	0x3d81dccd	0.063409425
151	0xbc12d092	-0.00896086
152	0xbde42edf	-0.111417525
153	0xbd98f84a	-0.074692324
154	0xbd9c41ca	-0.07629736
155	0x3d6c6fc4	0.057723776
156	0xbdc5a7b2	-0.09651126
157	0xbe038d0f	-0.12846778
158	0xbafb229c	-0.0019160095
159	0xbe198759	-0.14993037
160	0x3cb8ef89	0.022575157
161	0xbcc6b6e0	-0.024257123
162	0xbd024b8f	-0.03181034
163	0xbdfacc27	-0.1224597
164	0x3e0ec945	0.13943966
165	0xbd182094	-0.037140444
166	0x3d2bfa15	0.041986544
167	0xbda8ae16	-0.08236329
168	0x3db5cb80	0.08876705
169	0xbdab3d13	-0.08361258
170	0xbd5a35b1	-0.05327386
171	0xbd947d69	-0.072504826
172	0x3c96829a	0.018372823
173	0xbd9be1d6	-0.07611434
174	0xbc451ef7	-0.012031308
175	0xbde5889c	-0.11207697
176	0xbda6257d	-0.08112619
177	0xbe300f14	-0.17193252
178	0x3d5771af	0.05259865
179	0x3db6554f	0.0890299
180	0x3cbbe8df	0.02293819
181	0xbdb09250	-0.08621657
182	0x3da765f8	0.08173746
183	0xbdc9ba2d	-0.09849963
184	0x3dc45d3c	0.095880955
185	0x3d0f27ec	0.03495018
186	0xbd384e4b	-0.04499654
187	0xbd7501bb	-0.059816103
188	0xbdc6cf26	-0.09707479
189	0xbdd537af	-0.104110114
190	0xbdaaf8dd	-0.08348248
191	0xbbc37693	-0.005965063
192	0x3da27234	0.07931939
193	0x3d1682cd	0.036745835
194	0xbdab0a32	-0.08351554
195	0xbd939fc2	-0.07208206
196	0x3e190a3e	0.14945313
197	0xbc877f71	-0.016540261
198	0x3df101aa	0.117678955
199	0x3cbaa9cf	0.02278605
200	0xbdecdbe3	-0.115653776
201	0x3db09850	0.08622801
202	0xbdbc2141	-0.0918603
203	0x3d56f67b	0.052481156
204	0xbd8c8f47	-0.068632655
205	0xbd6bc9d8	-0.05756554
206	0xbc4c3a0d	-0.012465012
207	0x3bff4704	0.007790448
208	0xbc8e4758	-0.017368004
209	0xbdf5b2c1	-0.11996985
210	0x3e0cfa79	0.13767423
211	0x3b8d6d13	0.004315981
212	0x3da1f69f	0.07908367
213	0x3ce4b2f4	0.027917363
214	0x3c43dc70	0.011954412
215	0x3df65b0b	0.12029084
216	0x3d3dbb02	0.046320923
217	0x3ca2db48	0.019879952
218	0xbe0996bd	-0.13436408
219	0x3dfca951	0.12336982
220	0xbe17e752	-0.14834335
221	0xbd87abf9	-0.06624598
222	0x3de6399f	0.11241459
223	0xbdacab50	-0.08431113
224	0xbe0e6bd7	-0.13908325
225	0xbd73915e	-0.059464805
226	0x3c9e80b3	0.019348478
227	0xbd85d9a2	-0.06535651
228	0xbe04d573	-0.1297205
229	0x3d689478	0.056782216
230	0xbd850b6e	-0.06496321
231	0x3de22d80	0.11043835
232	0x3d33fa14	0.043939665
233	0x3a645a18	0.0008710935
234	0x3d85334d	0.065039255
235	0x3dbd6b9f	0.09249043
236	0x3d5f4161	0.05450571
237	0xbd28b2b5	-0.041186053
238	0x3cc3922e	0.023873415
239	0x3e062f14	0.13103896
240	0xbc31b8fa	-0.0108473245
241	0xbd5ced0f	-0.053937014
242	0xbc983367	-0.018579198
243	0x3bc7c620	0.0060966164
244	0xbde0b0f9	-0.10971255
245	0x3df4c1e1	0.11951042
246	0x3dc9aec1	0.09847785
247	0xbddbb729	-0.107282944
248	0xbcd9447a	-0.02652191
249	0x3dc418a9	0.09575016
250	0xbe0d0b88	-0.1377393
251	0xbe03744b	-0.12837331
252	0x3d95ffb1	0.0732416
253	0x3e0ca8ec	0.13736314
254	0x3af5d31b	0.0018754931
255	0xbd92e3f8	-0.07172388

l1.bias f4 [100]
0	0xbe11ff98	-0.14257658
1	0xbd69e8ea	-0.05710689
2	0xbcc08434	-0.02350054
3	0x3e03a76a	0.12856832
4	0x3d82caa4	0.06386307
5	0xbdb09f3b	-0.08624121
6	0x3d070180	0.032960415
7	0x3b2c988d	0.0026336045
8	0x3be4c60f	0.0069816182
9	0x3ce1f774	0.027583815
10	0xbd4eb79f	-0.050468083
11	0x3de73f8d	0.11291418
12	0xbb01c1fa	-0.0019799457
13	0x3d9063d4	0.07050291
14	0x3da09a64	0.07841948
15	0x3d3afd1d	0.045651544
16	0x3df2be0b	0.11852654
17	0x3dffbb95	0.1248695
18	0xbe094b4f	-0.13407634
19	0x3df1b0fa	0.11801334
20	0xbcb7f141	-0.022453906
21	0xbdcebb38	-0.10094303
22	0xbe0403d8	-0.12892091
23	0xbd3b9c31	-0.045803253
24	0x3dcee322	0.10101916
25	0xbd08bd4d	-0.033383656
26	0x3ccbbfdd	0.024871761
27	0x3ddf4c2d	0.10903201
28	0xbe1080ad	-0.14111586
29	0xbb8ab0e4	-0.004232513
30	0x3c7f9522	0.015599521
31	0x3c50f56e	0.0127538275
32	0xbe00c0c0	-0.12573528
33	0x3ded2a2f	0.115803115
34	0x3c5b0d6c	0.013369899
35	0xbde5d746	-0.11222701
36	0xbdefc4cd	-0.11707459
37	0x3dd41bd4	0.1035687
38	0x3df4d769	0.11955149
39	0x3c86517a	0.016396273
40	0x3dc0fb0d	0.09422884
41	0xbb440168	-0.0029908065
42	0x3d5a72bd	0.05333208
43	0x3ddbab3a	0.10726018
44	0x3d6ed426	0.05830779
45	0xbd7d2f05	-0.06181242
46	0x3e0fc564	0.14040142
47	0x3d04fbf2	0.032466836
48	0xbd55abfc	-0.05216597
49	0x3da3f68a	0.08006008
50	0xbd0ed814	-0.034874037
51	0x3ddf6534	0.10907975
52	0xbdb009ec	-0.085956424
53	0x3e056f45	0.13030727
54	0x3d5a3abb	0.053278666
55	0xbd6cea11	-0.05784041
56	0xbd88a779	-0.06672568
57	0xbe13b254	-0.14423496
58	0xbde60af9	-0.112325616
59	0x3e03b27d	0.12861057
60	0x3d3f4fa2	0.046706803
61	0xbdc7f510	-0.09763539
62	0x3e11191a	0.14169732
63	0x3d5fa3e9	0.054599676
64	0xbdf62859	-0.120194145
65	0xbde87fed	-0.11352525
66	0x3dd4615c	0.10370132
67	0x3d9a6a26	0.075397775
68	0xbd39c09d	-0.045349706
69	0x3dae6482	0.08515264
70	0x3deeb3c8	0.11655384
71	0x3d28eb1c	0.041239843
72	0x3e015ced	0.12633105
73	0xbd665749	-0.056235585
74	0xbbadae76	-0.0053003384
75	0xbb0ea675	-0.0021766697
76	0x3befead7	0.0073216963
77	0x3c9b4654	0.018954434
78	0x3d9a243b	0.07526442
79	0xbcfba9f8	-0.030720696
80	0x3d229308	0.039691
81	0xbcab5b3c	-0.020917527
82	0xbdd83cc2	-0.10558464
83	0xbd1feb1d	-0.03904258
84	0xbcbe0044	-0.023193486
85	0x3d626162	0.055268653
86	0x3e0c6a72	0.1371248
87	0x3da33f68	0.07971078
88	0xbe0fc53b	-0.14040081
89	0xbdfec9a9	-0.12440807
90	0x3d9fa59e	0.07795261
91	0xbd180cd9	-0.037121627
92	0xbd8f83d3	-0.07007565
93	0x3ce0ac30	0.027425855
94	0xbd4c7e99	-0.04992542
95	0x3e114ca8	0.14189398
96	0xbde2cb12	-0.11073889
97	0x3b42d1d7	0.0029727125
98	0x3db95416	0.09049241
99	0xbd9c8b60	-0.07643771

bn1.weight f4 [100]
0	0x3f7ef120	0.9958668
1	0x3f81c66c	1.0138679
2	0x3f7d866b	0.9903323
3	0x3f801314	1.0005822
4	0x3f782e0d	0.9694527
5	0x3f79cf7f	0.9758224
6	0x3f828825	1.0197798
7	0x3f760b94	0.96111417
8	0x3f7e2239	0.9927097
9	0x3f83dff1	1.0302716
10	0x3f85d4d2	1.0455573
11	0x3f71cb6d	0.9445103
12	0x3f82c331	1.0215818
13	0x3f7eec28	0.99579096
14	0x3f78c885	0.9718097
15	0x3f7a0750	0.9766741
16	0x3f7db92f	0.9911069
17	0x3f85b43f	1.0445632
18	0x3f705055	0.93872577
19	0x3f84d4e1	1.0377465
20	0x3f7a6b48	0.9781995
21	0x3f7762a7	0.96634907
22	0x3f7771e9	0.9665819
23	0x3f81ad44	1.0131001
24	0x3f76da46	0.9642681
25	0x3f807e65	1.0038573
26	0x3f7f52a8	0.997355
27	0x3f80dad3	1.006678
28	0x3f79da79	0.9759899
29	0x3f833aa3	1.025227
30	0x3f81f9c3	1.0154346
31	0x3f788744	0.970814
32	0x3f7fa830	0.9986601
33	0x3f83d887	1.0300454
34	0x3f85c213	1.0449852
35	0x3f81854c	1.0118804
36	0x3f7789f7	0.9669489
37	0x3f816495	1.010882
38	0x3f7f94b5	0.99836284
39	0x3f79cbed	0.9757679
40	0x3f7f088a	0.99622405
41	0x3f82a1d7	1.020564
42	0x3f7d65af	0.9898328
43	0x3f8244ba	1.0177224
44	0x3f80225f	1.0010489
45	0x3f78ceaa	0.97190344
46	0x3f8235ba	1.0172646
47	0x3f7e77cf	0.99401563
48	0x3f79142b	0.972964
49	0x3f7a6b6b	0.97820157
50	0x3f741c9b	0.9535615
51	0x3f7b2a8c	0.98111796
52	0x3f7b7cfc	0.98237586
53	0x3f8240eb	1.0176061
54	0x3f7f178d	0.9964531
55	0x3f7a2046	0.97705495
56	0x3f80e61b	1.0070223
57	0x3f799a4b	0.9750106
58	0x3f8122ce	1.0088747
59	0x3f760b77	0.96111244
60	0x3f86759c	1.0504642
61	0x3f77c52c	0.96785235
62	0x3f83f6e1	1.0309716
63	0x3f7c1c8e	0.9848107
64	0x3f82f563	1.0231136
65	0x3f7d7506	0.9900669
66	0x3f777c36	0.96673906
67	0x3f79450d	0.9737099
68	0x3f875a03	1.0574344
69	0x3f7c96bf	0.9866752
70	0x3f814b82	1.0101168
71	0x3f80e3c2	1.0069506
72	0x3f85ca21	1.045231
73	0x3f7ffd59	0.9999595
74	0x3f82f5ac	1.0231223
75	0x3f85b904	1.0447087
76	0x3f7a168b	0.9769065
77	0x3f81775c	1.011455
78	0x3f7fdc4b	0.99945515
79	0x3f7b88bd	0.9825552
80	0x3f797525	0.97444373
81	0x3f7fcdb3	0.9992325
82	0x3f81e72f	1.0148677
83	0x3f7864e5	0.9702895
84	0x3f7ddf6b	0.99169034
85	0x3f799b7a	0.97502863
86	0x3f7b84da	0.9824959
87	0x3f74e1bf	0.9565696
88	0x3f86683b	1.0500559
89	0x3f7b1083	0.9807207
90	0x3f7ed73f	0.9954719
91	0x3f81aef1	1.0131513
92	0x3f802b99	1.0013305
93	0x3f8230df	1.0171164
94	0x3f780b0d	0.9689186
95	0x3f7a2442	0.97711575
96	0x3f7f51a7	0.99733967
97	0x3f7658dd	0.96229345
98	0x3f7c1944	0.9847605
99	0x3f8250c7	1.0180901

bn1.bias f4 [100]
0	0xbca7b397	-0.020471377
1	0x3ab64574	0.0013906197
2	0xbc6d1870	-0.014471158
3	0xbce02f2c	-0.027366243
4	0xbc8dfb59	-0.017331766
5	0xbcc716cb	-0.02430286
6	0x3b9a0c33	0.0047011613
7	0xbd090edc	-0.033461437
8	0x3c062b56	0.008189043
9	0x3aedbfe6	0.0018138855
10	0x3d2118d9	0.039330337
11	0xbcf32f3a	-0.029685605
12	0x3a423c0e	0.00074094615
13	0x3ca49da1	0.020094695
14	0xbd1b677a	-0.03794048
15	0xbd13c339	-0.03607485
16	0xbcca3245	-0.024682174
17	0x3cb4953d	0.022043819
18	0xbd388a45	-0.04505374
19	0xbbc18853	-0.0059061437
20	0xbcf5e0a2	-0.03001434
21	0xbd012ca7	-0.031536724
22	0xbcfed780	-0.031108618
23	0x3ceb47bb	0.028720727
24	0xbd46c98b	-0.04853205
25	0xbbea1ef5	-0.0071448036
26	0xbaf460bc	-0.0018644552
27	0xbbb994c3	-0.0056634857
28	0x3c26ce04	0.010180954
29	0x3b12e770	0.002241578
30	0x3c470a8c	0.012148511
31	0xbc9086f6	-0.01764248
32	0x3aabaa12	0.001309695
33	0x3cb2232f	0.021745292
34	0x3d33a51c	0.043858632
35	0x3cde5c84	0.027143724
36	0xbd222cf6	-0.03959366
37	0x3c9f6c53	0.019460833
38	0x3c791037	0.01520162
39	0xbcbd58f0	-0.023113698
40	0xbca63365	-0.020288179
41	0xbd1d5940	-0.038415194
42	0xbc14051c	-0.009034421
43	0x3c942279	0.018082844
44	0xbd7be0bc	-0.06149362
45	0xbb9f2469	-0.0048566354
46	0xbb507a9f	-0.003181137
47	0x3c694499	0.014237546
48	0xbcbb2959	-0.022846865
49	0xbc97816d	-0.018494332
50	0xbd27f6b6	-0.041006766
51	0xbc455afe	-0.01204562
52	0xbc2f1d0f	-0.01068808
53	0xbadabea7	-0.0016688899
54	0xbb2c1f16	-0.0026263646
55	0xbd052855	-0.032509167
56	0xbcd6d941	-0.026226642
57	0xbc5e8874	-0.013582338
58	0xbb8bd3d8	-0.004267197
59	0xbd0706c0	-0.03296542
60	0x3d32c36a	0.043643393
61	0xbcaf76da	-0.021418978
62	0xbc572cab	-0.013133208
63	0xbbf001a1	-0.007324413
64	0xbb97726e	-0.0046217954
65	0x3a236f31	0.00062345254
66	0xbbff5031	-0.007791542
67	0xbd08c646	-0.033392213
68	0xbc7e3523	-0.0155155985
69	0xbd2e4a80	-0.042551517
70	0x3d2b0716	0.041754805
71	0xbc8e42b6	-0.017365795
72	0xbca61ff7	-0.020278914
73	0x3be2c249	0.0069201333
74	0xbc8aade1	-0.016928615
75	0x3be56cbf	0.007001489
76	0xbc882ae6	-0.016622018
77	0xbca2985d	-0.019848043
78	0xbaf3ad41	-0.0018591062
79	0xbce9c63c	-0.028536908
80	0x3c28cd4f	0.010302856
81	0xbce20cab	-0.027593931
82	0x3c988814	0.018619575
83	0xbc865703	-0.016398912
84	0x3c20b36d	0.009808403
85	0x3c546756	0.01296409
86	0xbd00d0d4	-0.031449154
87	0xbd199676	-0.037497006
88	0xbd22e2e9	-0.03976718
89	0xbc394363	-0.01130757
90	0x3bf00f6d	0.0073260576
91	0xbc01d184	-0.007923488
92	0xbc1830d8	-0.009288989
93	0xbb071ed2	-0.0020617736
94	0xbce5e369	-0.02806254
95	0xbcbb614c	-0.022873543
96	0xbc262716	-0.010141155
97	0xbd32d235	-0.0436575
98	0xb638d380	-2.7541246e-06
99	0x3c3557b3	0.011068272

bn1.running_mean f4 [100]
0	0xbde126dc	-0.1099374
1	0xbdeac48c	-0.114632696
2	0xbbfbf1fa	-0.007688758
3	0x3ddfffa2	0.1093743
4	0x3e155eff	0.1458702
5	0xbd89994c	-0.06718692
6	0x3cc1e118	0.023666903
7	0x3ca4fe02	0.020140652
8	0xbbc1be45	-0.0059125745
9	0x3cb0264e	0.02150264
10	0xbcebe600	-0.028796196
11	0x3de8f1a1	0.11374212
12	0xbc372213	-0.0111775575
13	0x3dabb6d7	0.08384483
14	0x3d461c50	0.048366845
15	0x3d3c7cf5	0.046017606
16	0x3df07f54	0.11743036
17	0x3e12a48c	0.14320582
18	0xbdf531b7	-0.11972373
19	0x3dc1ac74	0.09456721
20	0x3d140fab	0.036147755
21	0xbdc32482	-0.09528448
22	0xbde4c152	-0.111696854
23	0xbd33e93a	-0.043923594
24	0x3da94622	0.0826533
25	0x3c896fcd	0.016776944
26	0x3d783cd2	0.060604878
27	0x3deda568	0.11603814
28	0xbe0fdef0	-0.14049888
29	0xbd623243	-0.055223715
30	0xbcd22c8f	-0.025656013
31	0x3d491146	0.04908874
32	0xbdcf4c69	-0.10121996
33	0x3e17d410	0.14826989
34	0x3d54eb9e	0.051982515
35	0xbe0f5f33	-0.1400116
36	0xbda1feb0	-0.07909906
37	0x3e05b0a2	0.13055661
38	0x3dd1e44a	0.10248621
39	0xbca19184	-0.019722708
40	0x3dd254b6	0.102700636
41	0xbd229b28	-0.03969875
42	0x3d4e6acf	0.05039483
43	0x3df94e83	0.12173178
44	0x3d7d4106	0.06182959
45	0xbdc86dfe	-0.09786604
46	0x3e0e2908	0.1388284
47	0x3da107a8	0.078627884
48	0xbdc76a2b	-0.09737047
49	0x3e00983c	0.12558073
50	0xbd911847	-0.07084709
51	0x3d08d97c	0.033410534
52	0xbd993f24	-0.07482746
53	0x3dd8e739	0.10590977
54	0x3d3aad4c	0.045575425
55	0xbd47ae2a	-0.04875008
56	0xbdbc08e9	-0.09181387
57	0xbe380d85	-0.17973907
58	0xbde1fa8b	-0.110341154
59	0x3e0cce3b	0.13750546
60	0x3d2b3ff2	0.04180903
61	0xbd5081c0	-0.05090499
62	0x3e023a96	0.12717661
63	0x3deba00c	0.11505136
64	0xbe2eb921	-0.17062809
65	0xbe2e4ba2	-0.17021039
66	0x3dc6d019	0.0970766
67	0x3d6d7dc0	0.057981253
68	0xbd52dc72	-0.051479764
69	0x3d9ef7e2	0.07762124
70	0x3dc18cbf	0.09450673
71	0x3d8a0278	0.06738752
72	0x3de46f36	0.11154024
73	0xbd8f63f3	-0.07001486
74	0xbd3039a0	-0.043023705
75	0xbabc03f0	-0.0014344435
76	0x3bd6d744	0.0065564234
77	0x3cbec682	0.023288015
78	0x3da090e6	0.07840137
79	0xbd4a43e9	-0.04938117
80	0x3d49df3e	0.049285166
81	0xbd0b421e	-0.0339986
82	0xbe111763	-0.14169078
83	0xbcbe0c95	-0.023199359
84	0xbce0bd46	-0.027434003
85	0x3d2921c1	0.041291956
86	0x3de4ce57	0.11172169
87	0x3d91d5ca	0.07120855
88	0xbe1fa800	-0.1559143
89	0xbd9acba2	-0.07558371
90	0x3da354cf	0.0797516
91	0xbbde8130	-0.0067903027
92	0xbd504b9e	-0.050853364
93	0xbc861a8e	-0.016370084
94	0xbd142eb5	-0.036177356
95	0x3e27475e	0.16335818
96	0xbe0053f6	-0.12532029
97	0x3ceb4567	0.028719617
98	0x3d9dd6c2	0.077069774
99	0xbd28e1c4	-0.041230932

bn1.running_var f4 [100]
0	0x3ea24ec6	0.31700724
1	0x3e5b76a0	0.2143197
2	0x3e462f4e	0.19353983
3	0x3e6dd19d	0.23224492
4	0x3e801d00	0.25022125
5	0x3e35d348	0.17756379
6	0x3e2830ad	0.16424818
7	0x3e50959f	0.20369576
8	0x3e163079	0.14666928
9	0x3db8873f	0.09010171
10	0x3ddfd762	0.10929753
11	0x3e375a23	0.17905478
12	0x3de8ffec	0.11376938
13	0x3e84ab8b	0.25912127
14	0x3e82ac40	0.2552204
15	0x3e44e160	0.19226599
16	0x3e1bd78b	0.15218942
17	0x3e6a3448	0.22871506
18	0x3e5942dd	0.21216913
19	0x3e0028a3	0.12515502
20	0x3eb6ebd5	0.357268
21	0x3e990051	0.29883054
22	0x3ebb29d5	0.36555353
23	0x3e03349a	0.12813035
24	0x3f1d78ef	0.61512655
25	0x3ee1d1a7	0.44105265
26	0x3e80730b	0.2508777
27	0x3e9da430	0.30789328
28	0x3eae4982	0.34040457
29	0x3e1f277b	0.15542404
30	0x3e3d611d	0.18494077
31	0x3e0f65bd	0.14003654
32	0x3e412db2	0.18865088
33	0x3df666f0	0.120313525
34	0x3e23b3da	0.15986577
35	0x3e49bfb6	0.19702038
36	0x3ed92ae5	0.42415538
37	0x3e4351b5	0.19074138
38	0x3e70b3df	0.23506115
39	0x3e240c22	0.16020253
40	0x3e41b72b	0.1891753
41	0x3e935f9e	0.28783888
42	0x3e887459	0.26651266
43	0x3e2f5dcf	0.17125629
44	0x3e4e0124	0.20117623
45	0x3e69cd7d	0.22832294
46	0x3e1b1a96	0.1514686
47	0x3e681578	0.2266444
48	0x3e5f541c	0.21809429
49	0x3e5f8e50	0.21831632
50	0x3e963da8	0.29343915
51	0x3f268ecf	0.6506166
52	0x3e0d8dc6	0.13823614
53	0x3e03501f	0.12823533
54	0x3e285839	0.16439904
55	0x3e150bbb	0.14555256
56	0x3e9d20bf	0.30689046
57	0x3e1d85b1	0.1538303
58	0x3e7cd91b	0.24692194
59	0x3e9edd55	0.31028238
60	0x3dded1cf	0.108798616
61	0x3ef74fd7	0.483031
62	0x3e011610	0.12606072
63	0x3eb322c9	0.34987476
64	0x3ecb5199	0.39710692
65	0x3e253f58	0.16137445
66	0x3ed2b599	0.41154173
67	0x3e5de2c4	0.21668535
68	0x3e2a4771	0.16628815
69	0x3e71def8	0.23620212
70	0x3e0cc8d0	0.13748479
71	0x3e7b11f0	0.24518561
72	0x3e02934c	0.12751502
73	0x3e68a3b2	0.22718695
74	0x3e426bda	0.18986455
75	0x3e43f7e5	0.19137533
76	0x3de9b6a9	0.11411793
77	0x3e2e441a	0.17018166
78	0x3ddcf9e8	0.10789853
79	0x3e66116c	0.22467583
80	0x3e4e7910	0.20163369
81	0x3e4a783b	0.19772427
82	0x3ebba634	0.3665024
83	0x3e278800	0.16360474
84	0x3e4f0ee6	0.20220527
85	0x3e22acad	0.15886183
86	0x3e418851	0.18899657
87	0x3e7fb937	0.24972998
88	0x3e0a5652	0.13509491
89	0x3ee82548	0.45340943
90	0x3de537fe	0.1119232
91	0x3e3b224d	0.18274803
92	0x3e458f59	0.19292964
93	0x3eb8c61f	0.36088654
94	0x3e5ca3a7	0.21546803
95	0x3dceef83	0.10104277
96	0x3e198e92	0.14995793
97	0x3e36771e	0.17818877
98	0x3e0958d9	0.13412799
99	0x3e08061a	0.13283578

l2.weight f4 [100, 100]
0	0x3cea1ea4	0.028579064
1	0x3d985be4	0.07439402
2	0x3d8de401	0.06928254
3	0x3d689ec9	0.056792054
4	0x3d627afc	0.05529307
5	0xbccbb411	-0.024866136
6	0x3dc8253a	0.097727254
7	0xbd49c838	-0.04926321
8	0x3d683316	0.056689344
9	0x3c80b42c	0.015710913
10	0x3be0bfc6	0.0068587987
11	0xbaa4ed27	-0.0012582884
12	0xbde99798	-0.11405867
13	0x3d35c47b	0.04437683
14	0x3d84b875	0.06480495
15	0xbdd6a2c0	-0.10480261
16	0xbcc1235f	-0.023576437
17	0x3d433ba5	0.047664303
18	0x3d4361e9	0.047700796
19	0x3d94bd4f	0.0726267
20	0xbcf8b3ca	-0.030359168
21	0xbd5fa3c0	-0.054599524
22	0xbe19363c	-0.14962095
23	0x3dd18ca3	0.102319025
24	0x3dc054fa	0.09391208
25	0x3d388d4c	0.045056626
26	0x3d427e78	0.04748389
27	0x3cc394d1	0.023874672
28	0xbb0c34f2	-0.0021393863
29	0x3c3e9118	0.011631273
30	0xbdb63b91	-0.0889808
31	0xbd6ae3da	-0.057346202
32	0xbcc3173c	-0.02381479
33	0x3da04b4a	0.0782686
34	0xbc2eaa7a	-0.010660762
35	0x3d1f0f83	0.038833153
36	0x3d1ed196	0.038774095
37	0xbdc87f25	-0.09789876
38	0x3d9e80ee	0.07739435
39	0xbccc6d59	-0.024954485
40	0x3d03fd02	0.03222371
41	0x3da187c8	0.07887226
42	0x3d45598d	0.048181105
43	0xbd622d92	-0.05521924
44	0x3dcf077a	0.10108848
45	0xbd8300fa	-0.06396671
46	0x3dbbb8f7	0.091661386
47	0x3d73e886	0.059547924
48	0x3cb66842	0.02226651
49	0xbd2a7edf	-0.0416249
50	0x3d1cb292	0.038256235
51	0xbb1cc288	-0.002391966
52	0x3c995ef7	0.01872204
53	0x3d99e88a	0.075150564
54	0x3db21b31	0.086965926
55	0xbd1c9370	-0.038226545
56	0x3d2bdc1f	0.04195797
57	0xbb78744d	-0.0037911118
58	0xbd0ae29a	-0.03390751
59	0x3dcb47cc	0.099258035
60	0xbdd51345	-0.10404066
61	0x3db96d33	0.09054031
62	0xbdb39f3c	-0.08770606
63	0xbc8d0dc6	-0.017218482
64	0x3de3e21a	0.1112711
65	0xbdaa8b46	-0.083273456
66	0x3d2f7cc7	0.042843606
67	0x3d8c98d0	0.06865084
68	0x3d50dcaa	0.05099169
69	0xbdac542a	-0.084144905
70	0x3d92110e	0.07132159
71	0xbd3465e7	-0.044042494
72	0xbd1fdf63	-0.039031398
73	0xbd89d04e	-0.06729184
74	0x3c7896e0	0.01517269
75	0xbd8df6ea	-0.06931861
76	0x3d80ce11	0.06289304
77	0xbd3d1ddf	-0.046171065
78	0xbda67c54	-0.081291825
79	0x3d421e69	0.047392283
80	0xbd0bc37d	-0.03412198
81	0x3d0fc8c3	0.03510357
82	0x3daeae04	0.085292846
83	0xbcd58240	-0.026063085
84	0xbd947df1	-0.07250584
85	0x3dcd14ea	0.10013755
86	0xbd3b85b6	-0.045781814
87	0x3d48e7f6	0.04904934
88	0xbd975d6d	-0.073908664
89	0x3c33b7de	0.01096913
90	0x3bdaa51c	0.0066725146
91	0x3dc8d111	0.09805501
92	0xbbdf6522	-0.006817476
93	0x3dc9ba1f	0.09849953
94	0x3bd75c9c	0.006572319
95	0x3da3ef3b	0.08004614
96	0xbcf95dec	-0.030440293
97	0xbdae8405	-0.085212745
98	0x3d5a0a5c	0.053232536
99	0xbd368838	-0.044563502
100	0x3d8f33a1	0.06992269
101	0xbcff24d6	-0.031145494
102	0x3cf3cdf6	0.029761296
103	0xbd917d32	-0.07103957
104	0xbce2e70f	-0.027698068
105	0x3d9fae4f	0.077969186
106	0xbd4d22bf	-0.050081965
107	0x3c9675ce	0.01836672
108	0xbc461ec2	-0.012092294
109	0x3d0bb95f	0.03411233
110	0xbd2115ab	-0.039327305
111	0xbd9cd83e	-0.076584324
112	0x3d8f8d77	0.07009404
113	0xbd8d454b	-0.06897982
114	0xbda55438	-0.08072704
115	0x3d937dc5	0.07201723
116	0x3baadeb8	0.0052145384
117	0x3d5a5de0	0.053312182
118	0xbd900d2f	-0.070337646
119	0xbdcfa161	-0.101382025
120	0xbd5ce54d	-0.053929616
121	0xbd938639	-0.07203335
122	0xbdcd0ae9	-0.100118466
123	0x3d13291b	0.035927873
124	0xbda591cc	-0.08084449
125	0xbdde85ea	-0.10865386
126	0xbbaeb46f	-0.005331568
127	0xbda11fe5	-0.078674115
128	0x3c9efa02	0.019406322
129	0xbde1d3fe	-0.110267624
130	0xbdf43522	-0.11924197
131	0x3d32d2ea	0.043658175
132	0x3d9c30df	0.07626509
133	0x3d7d9195	0.061906416
134	0x3db12905	0.08650402
135	0xbdae5cce	-0.08513795
136	0x3c694f41	0.014240087
137	0x3dbc3284	0.091893226
138	0x3d3d2ff5	0.046188314
139	0x3c97a84f	0.018512873
140	0xbcd49f8c	-0.025954984
141	0xbd142373	-0.03616662
142	0xbdd316f9	-0.10307116
143	0x3d4e8d86	0.050427936
144	0xbd092120	-0.033478856
145	0xbd7b3ca2	-0.06133712
146	0x3c619c43	0.013770166
147	0xbdc8bfcd	-0.09802208
148	0xbcea4976	-0.028599482
149	0xbd078863	-0.033089053
150	0x3cb5bb7e	0.02218413
151	0xbdb2a72a	-0.0872329
152	0x3da913b5	0.08255712
153	0xbd252a15	-0.040323336
154	0xbddcb25e	-0.10776208
155	0xbd28803f	-0.04113793
156	0x3d241b5d	0.04006516
157	0x3d032a0a	0.032022513
158	0x3c80fe2a	0.015746195
159	0xbcb76835	-0.022388557
160	0x3d0bed87	0.03416207
161	0x3dd2c6f5	0.10291854
162	0x3bd9c4bb	0.0066457666
163	0x3de619b1	0.11235369
164	0xbd3efba3	-0.0466267
165	0xbdadf2ac	-0.084935516
166	0xbdb6ad8b	-0.089198194
167	0x3b6808b7	0.0035405585
168	0xbc16d879	-0.009206885
169	0xbd1359a5	-0.035974164
170	0xbb7fc98f	-0.003903005
171	0x3d03b370	0.032153547
172	0xbd3ce811	-0.046119753
173	0x3d324982	0.043527134
174	0xbc7fcba7	-0.015612519
175	0x3cbcb967	0.023037625
176	0x3cc6d0ed	0.024269545
177	0xbd9d2549	-0.07673127
178	0xbd25b92f	-0.040459808
179	0x3d8a0aa2	0.06740309
180	0x3d88d85f	0.066818945
181	0xbd786de9	-0.060651693
182	0x3db2ac26	0.08724241
183	0x3d800e7c	0.06252763
184	0xbdbf7014	-0.09347549
185	0x3d80cf72	0.06289567
186	0x3d0a358f	0.033742484
187	0x3b9a8323	0.0047153397
188	0xbcf201b7	-0.029541833
189	0x3c390577	0.011292807
190	0xbc44038d	-0.011963737
191	0xbd987763	-0.07444646
192	0xbd355e49	-0.04427937
193	0xbd687bf1	-0.056758825
194	0x3da3e7f5	0.08003227
195	0xbd5e4ce2	-0.05427254
196	0x3b320fe9	0.0027170128
197	0xbdb3cb31	-0.0877899
198	0xbd7be0fe	-0.061493866
199	0xbd84a132	-0.06476058
200	0x3dbd2dd2	0.09237255
201	0x3dc9f1d8	0.09860581
202	0x3d6de9de	0.05808436
203	0xbcda0f22	-0.026618544
204	0xbd806fae	-0.06271301
205	0x3d81a2df	0.06329893
206	0x3db24fe1	0.08706642
207	0xbdab9d21	-0.08379579
208	0xbcb9d1cc	-0.022683047
209	0x3d521cd0	0.05129701
210	0xbd8c25d1	-0.068431504
211	0xbdb7fcea	-0.089837864
212	0xbcd092f4	-0.025460698
213	0xbddc49be	-0.10756253
214	0xbdb438af	-0.08799874
215	0xbdc52259	-0.09625692
216	0xbc6a648b	-0.014306198
217	0x3d99925f	0.07498621
218	0x3daa3706	0.08311276
219	0xbb71e7a9	-0.0036911762
220	0x3c88d3a2	0.016702477
221	0x3dec2391	0.11530221
222	0xbba548a7	-0.005044061
223	0x3bdf15b9	0.0068080095
224	0xbd0e83da	-0.034793712
225	0x3d4b8c50	0.04969436
226	0xbb3b47ba	-0.0028576688
227	0x3d84a9e5	0.06477717
228	0xbda5a0f0	-0.08087337
229	0x3da5b984	0.08092025
230	0xbe010d7e	-0.12602803
231	0xbbaa02ad	-0.0051883073
232	0xbd3b60a7	-0.04574647
233	0x3d82743f	0.063698284
234	0xbd889590	-0.06669152
235	0xbd333e17	-0.043760385
236	0xbd832efc	-0.06405446
237	0x3d97a284	0.07404044
238	0xbdbd0e50	-0.092312455
239	0xbcc29e31	-0.023757072
240	0xbdc24057	-0.09484928
241	0x3b9f0a32	0.0048535103
242	0xbccbc79f	-0.02487546
243	0xbd5f11a1	-0.05446017
244	0x3a7d41df	0.00096609996
245	0x3d901f1e	0.07037185
246	0xbde92b7d	-0.11385248
247	0x3d81a18d	0.063296415
248	0xbd397b35	-0.045283515
249	0x3bb0cdfc	0.005395649
250	0xbd4ef7ef	-0.050529417
251	0x3d02765a	0.03185115
252	0x3dd73701	0.10508538
253	0x3d4b30d2	0.049607106
254	0x3d1e789a	0.038689233
255	0x3db4e163	0.088320516

l2.bias f4 [100]
0	0xbd80491c	-0.062639445
1	0xbda0e0dd	-0.07855389
2	0xbdb139a4	-0.08653572
3	0x3d9eef7c	0.07760522
4	0x3bca7e51	0.006179609
5	0xbd43c9e1	-0.04779995
6	0x3c4c7494	0.012478966
7	0x3d636930	0.055520236
8	0x3cd439fc	0.025906555
9	0xbdbdca90	-0.09267151
10	0x3d996a51	0.07490981
11	0x3c8d15b3	0.017222261
12	0x3d2a908d	0.04164176
13	0xbd74c086	-0.059753917
14	0x3d101b23	0.03518213
15	0x3db9b053	0.09066834
16	0xbdb4b2d1	-0.08823169
17	0x3daea479	0.085274644
18	0x3d3c4ae4	0.04596986
19	0xbd91e975	-0.071246065
20	0x3ca32263	0.019913858
21	0x3c155a36	0.009115746
22	0x3db40216	0.0878946
23	0xbcf7f6b7	-0.03026901
24	0x3d73c320	0.059512258
25	0x3d92cea6	0.07168321
26	0x3d96b7dd	0.07359288
27	0x3d2e7dda	0.04260049
28	0xbd4ef28d	-0.050524283
29	0xbb5ba20f	-0.0033513342
30	0xbda2597b	-0.07927223
31	0x3c865a0d	0.016400361
32	0x3d44f947	0.048089292
33	0x3dc54e25	0.096340455
34	0xbda4d2c3	-0.08048012
35	0xbd24322f	-0.04008692
36	0xbcefec95	-0.029287616
37	0x3db0f8fc	0.0864124
38	0x3d7ef945	0.06224944
39	0xbdc09563	-0.09403493
40	0x3d0a0ac8	0.033701688
41	0xbdbc8130	-0.09204328
42	0x3d16ed32	0.0368473
43	0x3dbdb5e3	0.09263208
44	0xbd1f360a	-0.038869895
45	0xbdb0ff3c	-0.08642432
46	0x3d072088	0.03299001
47	0xbd9d25a4	-0.07673195
48	0x3d4599a4	0.048242226
49	0x3db40f92	0.08792032
50	0xbb8a7c52	-0.004226246
51	0xbd3545f3	-0.044256162
52	0xbd6ab2d6	-0.057299457
53	0xbcac1150	-0.021004349
54	0xbd6a1c45	-0.057155866
55	0xbdc1df57	-0.09466427
56	0xbd624013	-0.055236887
57	0xbbfd16bf	-0.007723659
58	0x3d542d47	0.051800992
59	0x3cf44bc9	0.029821293
60	0xbdabc0b4	-0.083863646
61	0x3da9d6ae	0.082929
62	0xbc63b9c4	-0.01389927
63	0xbd88a105	-0.06671337
64	0x3c803aff	0.015653132
65	0xbd4d4e1e	-0.050123326
66	0xbd869719	-0.06571788
67	0x3c91de53	0.017806208
68	0xbd87c45c	-0.066292495
69	0xbcbacf96	-0.022804063
70	0xbd884bfc	-0.06655118
71	0x3d69a9e0	0.05704677
72	0xbc94428f	-0.018098144
73	0x3d63cc35	0.05561467
74	0xbc7b7778	-0.015348308
75	0x3dc65afc	0.09685323
76	0xbda24b99	-0.07924575
77	0xb997e3a0	-0.00028970558
78	0x3da48bc8	0.08034474
79	0x3cbb1b45	0.022840152
80	0x3d5205c5	0.051275034
81	0x3ca58d6c	0.020209037
82	0x3d81cb16	0.06337564
83	0x3d954c76	0.072899744
84	0x3dc3f8cf	0.09568941
85	0x3cf15acf	0.029462246
86	0x3d892285	0.06696037
87	0x3daae0d1	0.083436616
88	0x3cc09329	0.023507671
89	0xbcb1239e	-0.021623429
90	0x3d7d92dd	0.061907638
91	0x3d99dfa2	0.07513358
92	0xbd9f3aa3	-0.07774856
93	0x3dbdadaa	0.092616394
94	0x3daaaa0b	0.08333214
95	0xbc82e464	-0.015978046
96	0xbd38838f	-0.04504734
97	0x3d5b7ea0	0.053587556
98	0xbd9df1d1	-0.077121384
99	0x3c9ee31a	0.0193954

bn2.weight f4 [100]
0	0x3f8a9d9e	1.0829351
1	0x3f89a432	1.0753233
2	0x3f8d99df	1.1062583
3	0x3f7ddc53	0.99164313
4	0x3f835385	1.0259863
5	0x3f8f6463	1.120251
6	0x3f8ccb16	1.0999477
7	0x3f8b0393	1.0860466
8	0x3f8eac26	1.1146286
9	0x3f8a31c5	1.0796438
10	0x3f8bbae5	1.0916411
11	0x3f8a6d46	1.0814598
12	0x3f8054f2	1.0025923
13	0x3f8e0148	1.1094141
14	0x3f815087	1.01027
15	0x3f8fdca7	1.1239213
16	0x3f903c3b	1.1268381
17	0x3f8ce836	1.1008365
18	0x3f8cd47e	1.1002347
19	0x3f8cc839	1.0998603
20	0x3f8f2e44	1.1185994
21	0x3f8b537f	1.0884856
22	0x3f8b321d	1.0874668
23	0x3f87e167	1.0615662
24	0x3f7d13b6	0.988582
25	0x3f8bcf4f	1.092264
26	0x3f8e93a7	1.113881
27	0x3f8b7cc3	1.0897449
28	0x3f84cacd	1.037439
29	0x3f8b61ed	1.088926
30	0x3f860210	1.046938
31	0x3f874172	1.0566847
32	0x3f8b2fc0	1.0873947
33	0x3f8e8e8b	1.1137251
34	0x3f8c7a20	1.097477
35	0x3f7afbcd	0.9804047
36	0x3f884584	1.0646214
37	0x3f8d62e8	1.1045809
38	0x3f8e68b6	1.1125705
39	0x3f88f7f4	1.0700669
40	0x3f849d79	1.0360557
41	0x3f895b5f	1.0731009
42	0x3f8076f2	1.0036299
43	0x3f8e48e5	1.1115996
44	0x3f8bedf9	1.0931998
45	0x3f8a9050	1.0825291
46	0x3f8f156f	1.1178416
47	0x3f7da613	0.99081534
48	0x3f8cd7e2	1.1003382
49	0x3f82a1df	1.0205649
50	0x3f8b346f	1.0875376
51	0x3f8b3730	1.0876217
52	0x3f80ca71	1.006178
53	0x3f876996	1.0579097
54	0x3f8cf70b	1.1012892
55	0x3f8addef	1.0848979
56	0x3f806f8d	1.0034043
57	0x3f8b1c6b	1.0868047
58	0x3f8d5cc0	1.104393
59	0x3f897b8f	1.0740832
60	0x3f812c5c	1.0091662
61	0x3f8a4345	1.0801779
62	0x3f88a4fe	1.0675352
63	0x3f8c20e5	1.0947539
64	0x3f817149	1.0112697
65	0x3f8a0bab	1.0784811
66	0x3f8ddc62	1.108288
67	0x3f8d0448	1.1016932
68	0x3f7588af	0.9591169
69	0x3f8c48c5	1.0959707
70	0x3f7cf7de	0.98815715
71	0x3f8c03bb	1.0938638
72	0x3f7fe1da	0.99954
73	0x3f8d6c2a	1.1048634
74	0x3f89d4a2	1.0768015
75	0x3f8dbb4a	1.1072781
76	0x3f8d8bec	1.1058326
77	0x3f8c25d7	1.0949048
78	0x3f8390d5	1.0278574
79	0x3f7bbbe1	0.98333555
80	0x3f8e665b	1.1124986
81	0x3f8ba4d2	1.0909674
82	0x3f82b2b5	1.0210787
83	0x3f894ee0	1.0727196
84	0x3f814319	1.0098602
85	0x3f8d7ad7	1.1053113
86	0x3f889804	1.0671391
87	0x3f8dd39a	1.1080201
88	0x3f86489a	1.0490906
89	0x3f8a9a7e	1.0828397
90	0x3f825ff9	1.0185539
91	0x3f8d65b7	1.1046666
92	0x3f8c1761	1.0944635
93	0x3f84c115	1.0371424
94	0x3f7c76d7	0.98618835
95	0x3f8f57f2	1.1198714
96	0x3f8b0580	1.0861053
97	0x3f8e76e6	1.1130035
98	0x3f8a8efb	1.0824884
99	0x3f78c62e	0.971774

bn2.bias f4 [100]
0	0x3da9c2f4	0.082891375
1	0x3da38384	0.07984069
2	0x3de67430	0.1125263
3	0xbcab375f	-0.020900426
4	0x3c1cb67d	0.009564993
5	0x3ddec14b	0.108767115
6	0x3ddb6b61	0.1071384
7	0x3db1eb0c	0.0868741
8	0x3df7eaa3	0.121053
9	0x3dad1646	0.08451514
10	0x3db5f152	0.08883919
11	0x3da77dad	0.08178268
12	0xbba3c0d8	-0.004997354
13	0x3de46c1a	0.11153431
14	0x3c2c019a	0.010498429
15	0x3ddcf188	0.10788256
16	0x3df89405	0.121376075
17	0x3dcb0fb2	0.09915103
18	0x3dc9db71	0.09856308
19	0x3dda2da7	0.10653239
20	0x3df2aa64	0.11848906
21	0x3d989ca3	0.07451751
22	0x3dbed7e7	0.09318524
23	0x3d7ab6c1	0.061209444
24	0xbc809321	-0.015695157
25	0x3dc842bf	0.09778356
26	0x3de7ee94	0.11324802
27	0x3dc67da4	0.09691933
28	0x3c30b4ef	0.010785325
29	0x3db6dbf0	0.089286685
30	0x3d150561	0.036382083
31	0x3d47d337	0.048785415
32	0x3db3afdb	0.08773776
33	0x3de5a157	0.11212414
34	0x3db9ed0d	0.09078417
35	0xbcc17b28	-0.023618296
36	0x3d39c951	0.045358006
37	0x3dc9683e	0.09834336
38	0x3dd33735	0.10313264
39	0x3da0dfa1	0.07855154
40	0x3d132b13	0.03592975
41	0x3dac11a6	0.08401804
42	0xbb5288e1	-0.0032125043
43	0x3dd846aa	0.10560353
44	0x3d921542	0.07132961
45	0x3da65e78	0.08123487
46	0x3deec551	0.11658729
47	0xbcb9edae	-0.022696342
48	0x3dc39aca	0.09551008
49	0x3cbea0f5	0.02327011
50	0x3db20853	0.08692994
51	0x3d854f34	0.065092474
52	0xbc34f7ba	-0.011045391
53	0x3d3baea2	0.04582084
54	0x3dce4c26	0.10073118
55	0x3db09f56	0.08624141
56	0x3b94eb2d	0.0045446367
57	0x3da93238	0.082615316
58	0x3d9c5469	0.076332875
59	0x3d9bbe09	0.07604606
60	0x3ba7e87c	0.00512415
61	0x3d86f176	0.06589024
62	0x3d816357	0.06317776
63	0x3dbb8d45	0.091578044
64	0x381071a8	3.4438126e-05
65	0x3d4ff8eb	0.050774496
66	0x3dd32e7e	0.10311602
67	0x3dbe162e	0.09281574
68	0xbd27f09f	-0.04100096
69	0x3dcc4aa8	0.09975177
70	0xbca5a202	-0.020218853
71	0x3db69747	0.089155726
72	0xbc585683	-0.01320422
73	0x3ddf75db	0.10911151
74	0x3d62b11f	0.055344697
75	0x3dd57a87	0.10423761
76	0x3dd345d5	0.10316054
77	0x3db196ef	0.086713664
78	0x3c829279	0.015938984
79	0xbcd08939	-0.025456058
80	0x3dd39e28	0.103329
81	0x3dc86db1	0.09786547
82	0x3ca69abd	0.020337457
83	0x3d9b4ff0	0.07583606
84	0xbc2bf38e	-0.01049508
85	0x3dd1dd07	0.10247236
86	0x3d93fc78	0.07225889
87	0x3dc8600f	0.09783947
88	0x3d4f3cfb	0.050595265
89	0x3db17168	0.08664209
90	0x3b3e808d	0.0029068321
91	0x3dd6508c	0.10464582
92	0x3dc4d8f9	0.09611697
93	0x3d0e0366	0.03467121
94	0xbc8f43fb	-0.01748847
95	0x3e015cf6	0.12633118
96	0x3db1834d	0.08667622
97	0x3de4f754	0.111799866
98	0x3dc00658	0.0937621
99	0xbcfb4faf	-0.030677645

bn2.running_mean f4 [100]
0	0x3ebbccf1	0.36679795
1	0xbf0cbfa9	-0.5497995
2	0xbeae48f5	-0.34040037
3	0x3e9fc7c6	0.31207103
4	0x3ad31db9	0.001610688
5	0xbf255609	-0.64584404
6	0x3d5240e2	0.05133141
7	0xbe758208	-0.23975384
8	0xbe6843b4	-0.22682077
9	0xbf0da62c	-0.55331683
10	0x3d29e651	0.041479412
11	0xbe1fbbf7	-0.15599047
12	0x3cbd2738	0.02308999
13	0xbea26d78	-0.31724143
14	0xbe507dca	-0.20360485
15	0xbe5a167b	-0.21297638
16	0xbf1f805d	-0.6230524
17	0xbe11bd0b	-0.1423227
18	0x3e93bde5	0.28855816
19	0xbe1648e9	-0.1467625
20	0xbeb13b32	-0.34615475
21	0xbd3d3e76	-0.046202146
22	0xbeaf1b04	-0.342003
23	0xbd5a430d	-0.0532866
24	0x3f0b1291	0.54325205
25	0xbefb54d4	-0.49088156
26	0x3ddcaaef	0.107747905
27	0xbed0a1fb	-0.4074858
28	0x3e2c7b75	0.1684397
29	0xbef9098e	-0.48640102
30	0xbc545f20	-0.012962133
31	0x3e7f33a9	0.2492205
32	0xbf1a8650	-0.60361195
33	0xbf5b7985	-0.857323
34	0xbdcc58ef	-0.099779
35	0x3e0e84c4	0.13917834
36	0x3dfd8a0c	0.12379846
37	0xbeab2a9c	-0.33430946
38	0xbef574b5	-0.47940603
39	0xbcb0361e	-0.02151018
40	0x3dffc37d	0.12488458
41	0x3d763073	0.0601048
42	0xbe700553	-0.23439531
43	0xbec8abcf	-0.3919358
44	0xbd789367	-0.06068745
45	0xbc0cfeeb	-0.008605699
46	0xbec18aff	-0.37801358
47	0x3d6bcbab	0.05756728
48	0x3e0defbe	0.13860986
49	0xbd008db6	-0.031385146
50	0xbf3a47dd	-0.72765905
51	0xbd2ab8ee	-0.04168027
52	0xbeed60fd	-0.4636306
53	0xbe45125e	-0.19245288
54	0xbdbcfbef	-0.0922774
55	0xbcf22d48	-0.029562607
56	0x3de650ba	0.11245866
57	0x3e8c98b7	0.27460262
58	0x3e86efde	0.2635488
59	0xbf36455e	-0.71199596
60	0x3e2d7b08	0.16941464
61	0x3e217557	0.15767418
62	0x3c296cfd	0.010340926
63	0xbef1f63b	-0.4725817
64	0x3e82b758	0.25530505
65	0xbe9b394a	-0.30317146
66	0xbf2d28a2	-0.67640126
67	0x3e950241	0.29103282
68	0x3eb7da32	0.35908657
69	0xbeaeca95	-0.34138933
70	0x3e8d7bfe	0.2763366
71	0xbc84be87	-0.016204132
72	0x3e137a96	0.14402232
73	0xbe66888a	-0.22513023
74	0xbe2c2aaf	-0.16813157
75	0xbdab7984	-0.08372787
76	0xbeae3a0f	-0.3402867
77	0xbedbee6e	-0.42955345
78	0xbeae348e	-0.3402447
79	0x3ec5ce50	0.38633966
80	0xbe9bd736	-0.3043763
81	0x3dcdb198	0.10043639
82	0xbedeaebc	-0.43492687
83	0x3c9226fa	0.017840851
84	0x3e1e9902	0.15488055
85	0x3e310682	0.17287639
86	0x3e2f18b4	0.17099267
87	0x3eb531a8	0.35389447
88	0xbb65c4b4	-0.003505987
89	0x3d61156d	0.054952074
90	0x3eb32a5a	0.3499325
91	0x3e4cdf49	0.20007052
92	0xbd268320	-0.040652394
93	0x3eee75b4	0.46574175
94	0x3dc2c339	0.09509892
95	0xbf19001f	-0.5976581
96	0xbf1b39f2	-0.6063529
97	0xbea11318	-0.3145988
98	0x3cfece5e	0.031104263
99	0x3e63c071	0.2224138

bn2.running_var f4 [100]
0	0x3eb02374	0.3440205
1	0x3e9ead81	0.30991748
2	0x3e8277b5	0.25481954
3	0x3efae7f6	0.49005097
4	0x3eaa6745	0.33281913
5	0x3eab3ddb	0.3344563
6	0x3e959cc7	0.29221174
7	0x3e89bcef	0.26901957
8	0x3e8d8e16	0.27647465
9	0x3e90a8c3	0.28253755
10	0x3ec67eaa	0.38768512
11	0x3e893163	0.26795492
12	0x3e2a9e19	0.16661872
13	0x3ebe3322	0.37148386
14	0x3e6b5ca1	0.22984554
15	0x3eb3e789	0.35137585
16	0x3e678fcb	0.22613446
17	0x3e9d3853	0.30707034
18	0x3eab0ec0	0.3340969
19	0x3e2425c8	0.16030037
20	0x3e9d3be7	0.30709764
21	0x3e89dc85	0.26926056
22	0x3eb613f8	0.3556211
23	0x3ea4aadb	0.32161602
24	0x3e481a5e	0.19541308
25	0x3eb9030e	0.36135143
26	0x3ec5fc0e	0.38668865
27	0x3edaacdc	0.42710006
28	0x3e872810	0.26397753
29	0x3e934511	0.2876363
30	0x3ecd7910	0.40131426
31	0x3ebcb4a1	0.3685656
32	0x3e59d99e	0.2127442
33	0x3e6f0163	0.23340373
34	0x3eb42051	0.35180905
35	0x3e575e56	0.2103208
36	0x3e9b7c44	0.30368245
37	0x3e62c798	0.22146451
38	0x3e8abd55	0.27097574
39	0x3eaa22a1	0.33229545
40	0x3e6d280f	0.23159812
41	0x3e704da1	0.23467113
42	0x3e3eaef8	0.18621433
43	0x3ea27dbe	0.3173656
44	0x3eefed2b	0.46860632
45	0x3ece99fb	0.40351853
46	0x3e44ab38	0.1920594
47	0x3eaaf76d	0.33391896
48	0x3e9ede54	0.31028998
49	0x3e6e6edb	0.23284476
50	0x3e3c3a1d	0.18381543
51	0x3e9e4382	0.3091088
52	0x3ea5e989	0.32404736
53	0x3e8022e6	0.25026625
54	0x3e856f4f	0.26061484
55	0x3e95bfac	0.29247797
56	0x3e846a3c	0.258623
57	0x3ed68d6a	0.41904765
58	0x3eb37969	0.35053566
59	0x3e5c7f8c	0.2153303
60	0x3ebdc1b7	0.37061855
61	0x3ec78704	0.38970196
62	0x3e9c4a9a	0.30525666
63	0x3ec58670	0.3857913
64	0x3ea5bd82	0.32371145
65	0x3ecf3a2c	0.4047407
66	0x3e977394	0.29580367
67	0x3edd3b41	0.4320927
68	0x3e1ecaad	0.15507002
69	0x3e6fe702	0.23427966
70	0x3e9d084b	0.3067039
71	0x3ec3bf1c	0.38231742
72	0x3ed8bdf6	0.4233243
73	0x3e4b0783	0.19827084
74	0x3ec4c7d5	0.3843371
75	0x3ead06ab	0.3379415
76	0x3e928f96	0.28625172
77	0x3e7e1025	0.24810846
78	0x3e97813c	0.29590786
79	0x3ec0dd35	0.37668768
80	0x3e5fd882	0.21859935
81	0x3eb026b1	0.3440452
82	0x3e80d43e	0.25161928
83	0x3e55117a	0.20807448
84	0x3f00033f	0.50004953
85	0x3ece0afe	0.4024276
86	0x3e255d63	0.16148905
87	0x3ed9b508	0.42520928
88	0x3e8d8e2e	0.27647537
89	0x3e6b6b38	0.2299012
90	0x3ee5b7c3	0.44866762
91	0x3e807b77	0.25094196
92	0x3e8d4ea0	0.2759905
93	0x3ea18d83	0.31553277
94	0x3eb9c715	0.362847
95	0x3e7dc50f	0.24782203
96	0x3e5ff5d3	0.21871118
97	0x3e4dd7ad	0.20101805
98	0x3e947c49	0.29001072
99	0x3e9e4c79	0.3091772

l3.weight f4 [5, 100]
0	0xbe1bd81b	-0.15219156
1	0xbe217727	-0.1576811
2	0xbd5aeb00	-0.05344677
3	0x3cd3eb55	0.025869051
4	0xbdc2ef65	-0.09518317
5	0xbdc67306	-0.09689908
6	0xbdb6a98c	-0.08919057
7	0xbd8ebd49	-0.06969697
8	0xbe213543	-0.15742974
9	0xbe047b5c	-0.12937683
10	0xbe15ef8e	-0.14642164
11	0xbdf4ad2f	-0.11947095
12	0xbca5c32d	-0.020234669
13	0xbdfb2b82	-0.12264158
14	0xbc4cdbe3	-0.012503597
15	0xbc8d32f6	-0.017236214
16	0xbdd7ac0f	-0.105308644
17	0xbd9a0f5f	-0.07522463
18	0xbbbf26a4	-0.0058334637
19	0xbdbe17f1	-0.0928191
20	0xbcbcdb51	-0.023053797
21	0xbd8410d4	-0.06448522
22	0xbe1fd1d3	-0.15607385
23	0xbd09a953	-0.033608746
24	0x3c2d8e25	0.010592972
25	0x3c910eac	0.017707191
26	0xbc9c0811	-0.019046815
27	0xbc0c54fa	-0.008565182
28	0xbbae879c	-0.0053262245
29	0xbd801da0	-0.062556505
30	0x3d2cbc44	0.04217173
31	0xbdc99b60	-0.098440886
32	0xbddaca09	-0.106830664
33	0xbe2067fb	-0.15664665
34	0xbca25364	-0.019815154
35	0x3c0c9fbf	0.008583008
36	0x3ce1a0f7	0.027542574
37	0xbe221446	-0.15828046
38	0xbd07abf5	-0.033122975
39	0x3cb1af9f	0.021690188
40	0x3d1a1694	0.03761919
41	0x3d246c28	0.04014221
42	0xbe061406	-0.13093576
43	0xbdbf3dfa	-0.09337993
44	0xbbed46dd	-0.0072411136
45	0xbdefa9d9	-0.11702318
46	0xbde7d073	-0.113190554
47	0xbc601e8f	-0.013679161
48	0xbdba7ddc	-0.09106037
49	0xbded4643	-0.11585667
50	0xbdf585d7	-0.119884185
51	0xbc81cca5	-0.015844652
52	0xbd6ca6dd	-0.05777632
53	0x3bdc9d35	0.0067326077
54	0xbd98c4e5	-0.0745943
55	0xbdceaaaa	-0.10091145
56	0xbd707b6a	-0.058711447
57	0xbe0af507	-0.13570033
58	0xbe09552e	-0.134114
59	0xbdc117db	-0.09428378
60	0xbde8c8cf	-0.11366426
61	0xbd9943de	-0.07483648
62	0xbd80d3eb	-0.0629042
63	0xbcd57c6e	-0.02606031
64	0xbdbf414f	-0.093386285
65	0xbd9fbb6b	-0.07799419
66	0xbde30b07	-0.11086088
67	0xbd90acbd	-0.07064197
68	0x3c872bce	0.01650038
69	0xbd2e0e3c	-0.042494044
70	0xbda98440	-0.08277178
71	0x3cd0b6d5	0.025477806
72	0xbcf8a997	-0.030354304
73	0xbe082802	-0.13296512
74	0xbc0b78db	-0.008512701
75	0xbe093087	-0.13397418
76	0xbddf0a06	-0.10890584
77	0xbdfa3da4	-0.12218788
78	0x3d29dba5	0.041469235
79	0x3d3860fa	0.04501436
80	0x3cd0d9ab	0.025494417
81	0xbde8e5bc	-0.11371943
82	0xbc5618fe	-0.013067482
83	0xbdf2cef6	-0.11855881
84	0x3d0277d2	0.03185255
85	0xbd665198	-0.056230158
86	0xbe01bb5b	-0.12669127
87	0xbaa61bcc	-0.0012673079
88	0xbd2f2f35	-0.04276963
89	0xbdc85828	-0.097824395
90	0xbc5831b8	-0.013195448
91	0xbd42f183	-0.047593605
92	0xbc173b5d	-0.009230462
93	0x3c1eb8c4	0.009687606
94	0xbcb81f8d	-0.022475982
95	0xbde7ffc4	-0.1132808
96	0xbd9cba9b	-0.0765278
97	0x3c0407ac	0.00805847
98	0xbe180b1b	-0.14847986
99	0xbac7e4df	-0.0015250704
100	0x3e15e367	0.14637528
101	0x3e21631a	0.1576046
102	0x3e040a41	0.12894537
103	0xbdbfbbcd	-0.09361992
104	0xbcd2690e	-0.02568486
105	0x3d8feefe	0.07028006
106	0x3d257a66	0.04039993
107	0x3d70f836	0.058830462
108	0x3d888c94	0.06667438
109	0x3d524d61	0.051343326
110	0xbce2ea26	-0.027699541
111	0x3df55fbb	0.1198115
112	0xbd73287c	-0.05936478
113	0x3d9a12af	0.07523095
114	0xbc7ed3b1	-0.015553401
115	0x3da19852	0.07890381
116	0x3d67deba	0.056608893
117	0x3c4602ba	0.012085611
118	0x3c750f65	0.014957284
119	0x3d862a3f	0.065510266
120	0x3db047bf	0.086074345
121	0x3db97bb9	0.09056801
122	0x3e0b7416	0.13618502
123	0x3dd08d8a	0.101832464
124	0xbd352157	-0.04422125
125	0x3e176792	0.14785603
126	0x3d956ad6	0.07295768
127	0x3de0bc2c	0.10973391
128	0xbd622a76	-0.055216275
129	0x3dfa4b8f	0.12221443
130	0xbd0619d4	-0.032739475
131	0x3cea248e	0.028581884
132	0x3df9045a	0.12159033
133	0x3cb1fb5f	0.021726308
134	0x3dcdfad1	0.10057605
135	0xbd24bed3	-0.040221047
136	0xbc16419f	-0.009170919
137	0x3e0864be	0.1331968
138	0x3c905132	0.017616842
139	0x3cd64384	0.02615524
140	0x3db767e5	0.08955363
141	0x3e293567	0.16524278
142	0xbd66c564	-0.05634059
143	0x3d954615	0.07288758
144	0xbbb42f97	-0.005498837
145	0x3e0ec8e0	0.13943815
146	0x3d173b72	0.036921926
147	0xbda0a873	-0.07844629
148	0x3e2b3fee	0.16723606
149	0x3c924de5	0.017859409
150	0x3d65ac87	0.056072738
151	0x3e15f470	0.14644027
152	0xbd84ebc6	-0.06490283
153	0x3dcb6622	0.0993159
154	0x3e0161f6	0.12635025
155	0x3e006185	0.12537201
156	0x3d638a67	0.055551913
157	0xbdaef1ef	-0.08542239
158	0xbd7f1e6f	-0.062284883
159	0x3db12d97	0.08651274
160	0xbda1ecb2	-0.07906474
161	0xbd97e98f	-0.07417595
162	0x3d8116e6	0.06303196
163	0x3d82d552	0.06388344
164	0xbd2455c1	-0.040120844
165	0xbc8d2824	-0.017231055
166	0x3e137adc	0.14402336
167	0x3bfe5e9a	0.007762742
168	0xbd0fde40	-0.035124063
169	0x3dcb9067	0.09939652
170	0xbd8261c4	-0.063663036
171	0x3ca3b097	0.019981666
172	0xbd9fa368	-0.07794839
173	0x3db23ad1	0.087026246
174	0xbd612eaf	-0.05497616
175	0x3e0768a2	0.13223508
176	0x3e343259	0.17597331
177	0x3e0fd6ac	0.14046735
178	0x3d39706a	0.045273222
179	0xbd72b6f7	-0.05925652
180	0x3df77907	0.12083631
181	0xbc99a036	-0.018753152
182	0x3d36b973	0.044610452
183	0x3e07e811	0.1327212
184	0xbdc0e178	-0.09418005
185	0xbcc95f73	-0.024581647
186	0xbcc806dc	-0.024417333
187	0x3e21b908	0.1579324
188	0xbbc0f41c	-0.005888475
189	0x3e2fe281	0.17176248
190	0xbdb989d7	-0.09059494
191	0x3e345537	0.17610632
192	0x3e103521	0.14082767
193	0x3d8a12e1	0.06741882
194	0xbd9ccdcc	-0.0765644
195	0x3d7e4d79	0.062085602
196	0x3dbb3677	0.09141248
197	0x3d954d08	0.07290083
198	0x3e2a51f0	0.16632819
199	0x3c89e44a	0.01683249
200	0x3d67b56c	0.0565695
201	0x3da48bea	0.08034499
202	0x3d86c9d2	0.06581463
203	0x3d42d83c	0.0475695
204	0x3df293e0	0.11844611
205	0xbd924953	-0.07142892
206	0xbd821bb4	-0.0635294
207	0x3e1ee603	0.1551743
208	0xbdc45aa8	-0.09587604
209	0x3e03d8b6	0.12875637
210	0x3db07d84	0.0861769
211	0xbdcef067	-0.10104447
212	0x3d55c0fb	0.052185994
213	0xbdba896c	-0.091082424
214	0xbdef2917	-0.11677759
215	0xbde78d11	-0.11306203
216	0xbddedc69	-0.10881884
217	0x3dca6ae9	0.09883673
218	0x3e0cd7bc	0.13754171
219	0x3de6a550	0.112619996
220	0x3e146fe8	0.14495814
221	0xbda583dc	-0.08081791
222	0xbd02d60f	-0.031942423
223	0xbd93c279	-0.07214827
224	0x3d18c6ed	0.037299085
225	0x3d28d33b	0.04121707
226	0xbe2ea3db	-0.17054693
227	0xbdf3041d	-0.11866019
228	0x3e24314d	0.16034432
229	0xbd380a0c	-0.044931456
230	0x3dab3a0b	0.0836068
231	0xbde19dc3	-0.11016419
232	0x3cd23824	0.025661536
233	0xbdd4d536	-0.10392229
234	0xbd8aaa94	-0.067708164
235	0x3d7490f1	0.05970854
236	0x3e15f6ba	0.146449
237	0xbdc4df25	-0.09612874
238	0x3de17a9f	0.11009716
239	0x3df8a31d	0.121404864
240	0x3d32145e	0.043476455
241	0xbd08c5ef	-0.03339189
242	0xbc2d6596	-0.010583302
243	0xbe1c4e04	-0.15264136
244	0x3e125c6b	0.14293067
245	0x3d384127	0.04498401
246	0xbd891494	-0.06693378
247	0x3d9dc047	0.077026896
248	0xbceda9a8	-0.029011562
249	0xbdf234b9	-0.11826462
250	0x3dda20bf	0.10650777
251	0xbdf68b6c	-0.12038311
252	0x3d8c1996	0.06840818
253	0xbd403052	-0.04692108
254	0xbd94991c	-0.07255766
255	0x3ca10d01	0.019659521

l3.bias f4 [5]
0	0xbdb16a53	-0.08662858
1	0xbce0a75a	-0.02742355
2	0xbd639bd1	-0.05556852
3	0xbdfdc1f8	-0.12390512
4	0xbd43cb38	-0.047801226
