saved_models/qrnn.pth (torch, 63978 bytes, 6 tensors)

l1.weight f4 [100, 47]
00000000: 88ab 883c 4823 b03d 2cea 443d 80ad ebbb
00000010: 602c cdbb c8ec ae3d 6ef5 d7bd 9138 07be
00000020: f88f e73c 4001 9dbb be22 24bd 20c5 4b3d
00000030: 5466 bbbd df01 9bbd 20f1 4abc e01f f23c
00000040: 30b6 413c f76c 0abe 625a 9d3d 3f13 8abd
00000050: 08bb f43d f651 35bd d855 fb3d e032 e2bc
00000060: bcf5 d4bd 1c88 0b3e 080e ca3c ac55 463d
00000070: a09a b7bd d224 54bd a674 31bd 3980 8abd
00000080: b035 7ebd ae82 0dbd 24a1 b8bc 6cc1 0f3d
00000090: bcb3 f13d 82fe 73bd 00f3 c13c 82d9 ca3d
000000a0: 6422 40bd 92bf 94bd e4b7 93bd 2423 3f3d
000000b0: 45fc 80bd 6831 03be 2cfd 523d 2e00 59be
000000c0: c2f4 25bd 0fa6 29be a5c5 4bbe 2b9c 68bd
000000d0: 0f59 0abe ea56 89be 6b2c bdbd 57ac 23be
000000e0: f63b 7dbe ceb5 b7bd 44fa 58be 2003 bfbc
000000f0: 45b6 24bb dbd7 46be 42ca 7abd 3c8c bfbd
00000100: 8fec 6ebe 78a8 fbbd f3cb 81bd cc36 edbd
00000110: e041 1cbe 9970 e8bd 5933 27be f92e cabd
00000120: 607d 77bd 2172 11be d017 84be a413 30be
00000130: 9b36 3bbe 5575 bfbd 63ed 81bd c184 38bb
00000140: b5ec 30be 3502 20be 62fa 32bd bf6b cebd
00000150: 086b e7bd 030d 75be 9cb1 21bd 0f0b 20bc
00000160: 1e96 0abd e79b 43be b4ac 943d 5c32 403b
00000170: 6fff 0f3d a030 3cbe 300a 11bd e254 123e
00000180: a4a7 963d f03a 06be 96c2 0f3e 0029 52bc
00000190: 20d4 be3b 146d 08be 4866 983d 9cd2 ef3d
000001a0: fc35 55bd 90ef c23d d4ba e8bd 3099 a5bc
000001b0: 00d0 e4bb cc08 5ebd 8c8f 0f3e 266f 1bbd
000001c0: ac9c 123e 28e3 d53d e8a0 c9bd 603e c7bb
000001d0: 2eed 973d 8c24 10bd 681a b03c e303 15be
000001e0: b088 0bbc c748 bcbd d24e 0a3e 90d2 623c
000001f0: c45a f2bd 19ff e5bd acbe 6f3d 1edd 67bd
00000200: 77f8 a0bd 5255 c0bd 8050 78bb af18 95bd
00000210: 14fe 723d e6b0 28bd 8026 ba3a 34b6 043e
00000220: c8cb 103d 6255 833d f063 8fbc e0ae 42bc
00000230: 7a18 ccbd 5005 a8bd a995 98bd 624f 9a3c
00000240: 4c63 07bd 8fd3 b2bd eb6d afbd eb93 9dbd
00000250: 8b66 29be cbfb a13d 9f5c 8abc f1d6 993c
00000260: 2813 0bbe 19e1 ec3c b032 90bd 396f 093c
00000270: fb38 12be bcbb 2f3d e559 fabd 6273 593d
00000280: 7934 1cbe 8e3f b1bd 3f7d f2bd 8ccb 00bd
00000290: d049 983d e04e 68bd 7c58 81bd 86f9 25be
000002a0: f86d 533d 2636 7d3a 898f be3d d2a2 373d
000002b0: ba35 6f3d f0f9 88bd 8b47 5b3d 42d4 0cbe
000002c0: 333a 823d 7bc2 adbd bef2 643d 8f05 f3bb
000002d0: 47d6 e7bd 720e 0ebd 7a1b 55bc 4cbf 0f3e
000002e0: b727 5abd ea3d 9abd 74ef 02be 8cde 0bbd
000002f0: ad53 76be bdc8 e9bd 4aba 29bd 65ea 20be
00000300: b423 09be 7db4 8abe 50ff 8bbe fced e6bd
00000310: 1999 2dbd 3f65 57be 47c7 35be 349c d7bd
00000320: 290d c3bd 3cec 31bd efec 50be e7f9 d4bd
00000330: 025b 59be 35e2 85be 0e2d 8fbe 1261 61be
00000340: 14f4 ddbd 2390 debd 8c42 9cbe fbaf 80be
00000350: 8205 3cbe 9594 40be fa70 1abe c314 9abe
00000360: 4420 3bbe 42d0 f7bd f75b 2abe 0b27 c23c
00000370: b991 fabd 48cb 73be be40 94be 72b6 b7bd
00000380: 08d2 5bbe d228 82be 6241 fabd 5d31 30be
00000390: 2c86 5bbe 544d 0ebe f943 1dbe 3dc6 673b
000003a0: b33d 23be f58c 57be e096 17be 26d4 babd
000003b0: 043a 0e3e 371f 95bd f786 81bd 30ea bc3d
000003c0: 75c8 0b3e a05f 49bd 68c6 01be e482 60bd
000003d0: 5167 8c3d f3a1 11be 49bf e63c 5d14 c53d
000003e0: 29f5 19bc 6f4b d33d 6bb5 093d 0821 00b9
000003f0: 5c9b 4f3d 1292 c2bd 07c1 923d 8067 caba
0.016683355 0.08600479 0.048074886 -0.0071923137 -0.0062613934 0.08541256 -0.10544859 -0.13205172
0.028266892 -0.004791409 -0.040072195 0.04974854 -0.09150377 -0.07568716 -0.01238659 0.029556215
0.011823222 -0.1351813 0.07683255 -0.06741952 0.11949736 -0.044267617 0.12272233 -0.02761215
-0.103984326 0.1362614 0.024664894 0.048421547 -0.08965039 -0.051792927 -0.043324135 -0.06762738
-0.06206292 -0.034548454 -0.022537775 0.03509657 0.1180186 -0.05956889 0.023675442 0.099047676
-0.046907797 -0.07263102 -0.07212809 0.046664372 -0.062981166 -0.12811816 0.051510975 -0.21191475
-0.040516622 -0.16567253 -0.19899614 -0.05678956 -0.13510536 -0.26824123 -0.09236988 -0.15983711
-0.24729905 -0.08970223 -0.21189219 -0.02331692 -0.0025133055 -0.1941828 -0.061228044 -0.093529195
-0.23332427 -0.12287992 -0.06337728 -0.11582717 -0.15259504 -0.11349601 -0.16328181 -0.098722406
-0.0604223 -0.14203693 -0.25799417 -0.17194992 -0.18282549 -0.09348551 -0.06344106 -0.00281553
-0.17277797 -0.15625842 -0.043695815 -0.10079145 -0.112997115 -0.23930745 -0.039476022 -0.009768262
-0.03383457 -0.19102441 0.07259503 0.0029326892 0.03515571 -0.18377924 -0.035410106 0.14290193
0.07356194 -0.1310842 0.14039072 -0.012827158 0.005823627 -0.1332286 0.074413836 0.117100924
-0.052053437 0.09518349 -0.1136376 -0.020214647 -0.0069828033 -0.054207608 0.14019603 -0.037947796
0.14317578 0.10443717 -0.098451436 -0.0060804337 0.07418285 -0.035191104 0.021496966 -0.14552264
-0.008516476 -0.09193569 0.1350663 0.013844147 -0.118337184 -0.11230297 0.05853145 -0.05660736
-0.07859891 -0.093912736 -0.0037889779 -0.07280099 0.05932434 -0.04118433 0.0014202148 0.1296013
0.03535059 0.0641277 -0.017503709 -0.011882514 -0.09965606 -0.08204138 -0.074504204 0.01883668
-0.03305368 -0.08731758 -0.08565887 -0.07694229 -0.16543023 0.07909354 -0.016889868 0.01877925
-0.13581526 0.028915929 -0.07040918 0.008388334 -0.14279549 0.042903647 -0.12224177 0.053088553
-0.15254392 -0.086547 -0.11840295 -0.031444117 0.074359536 -0.056715846 -0.06315705 -0.16208467
0.051618546 0.0009659253 0.09304721 0.044833012 0.058400847 -0.06688297 0.053535026 -0.13752845
0.06358757 -0.0848436 0.05589556 -0.007416434 -0.11320167 -0.034681745 -0.013007039 0.14037818
-0.05326053 -0.075313404 -0.12786657 -0.034147784 -0.24055357 -0.11415241 -0.041437425 -0.15714414
-0.13392526 -0.27090827 -0.27343225 -0.11275861 -0.042382333 -0.21034716 -0.177518 -0.1052784
-0.095239945 -0.04343818 -0.20402883 -0.103992276 -0.21226123 -0.26149145 -0.27964061 -0.22009686
-0.1083757 -0.10867336 -0.3051952 -0.25134262 -0.18361476 -0.1880668 -0.1508216 -0.30093965
-0.18274027 -0.12100269 -0.16636644 0.023700258 -0.12234826 -0.23808014 -0.28955644 -0.089703456
-0.2146684 -0.25421768 -0.12219502 -0.1720633 -0.21437901 -0.13896686 -0.15357961 0.0035365962
-0.15941505 -0.21049865 -0.14803648 -0.09122495 0.13889319 -0.072813444 -0.063245706 0.09224355
0.13650687 -0.04916346 -0.12673342 -0.054812327 0.068556435 -0.14221935 0.028167384 0.096230246
-0.00939683 0.10317122 0.03362028 -0.00012219336 0.05068527 -0.09500517 0.07165723 -0.0015442222

l1.bias f4 [100]
00000000: 1439 893d d12f aebd 50ee b2bc 23d6 643b
00000010: fbd1 6ebe 068a 973d 256c 8bbd 76d3 babd
00000020: 0253 42bd c039 33bc 3b8b 27bd 4a1d f33d
00000030: b2e8 03bd 9c8f 34be 102c 333c 1966 6bbe
00000040: 3e38 973c 20a8 02bd 48ee 18be 9af1 813d
00000050: 4726 f0bd 3424 ccbd 42b3 2fbd f18f 61be
00000060: 0e76 51be ce77 13be c08a 143b 3852 babc
00000070: 41d7 a1bd b4d9 29be ecb2 e53d 3768 29bd
00000080: bc13 5f3d 383e d8bd 818f be3c 7809 49be
00000090: 8a17 713c 1440 fe3d 0825 23be abb1 92bd
000000a0: b377 893d 894e 7abe b8f6 14be eace aebd
000000b0: 1804 fbbc 80a5 6fbc 7c7e 09be 1ddf abbb
000000c0: 20e1 db3b 4714 a4bd 7bf6 80be e89c e23c
000000d0: 82fe 38bc e086 823d bc07 5cbd b275 11be
000000e0: eaff 873d 38f7 dabd 6afc aebd 5401 903d
000000f0: 8d1a 36be b82a b5bc 2bd3 08be b39e 3bbc
00000100: c0b5 fdbc e4ee 45bd ca1e 613d 2831 c6bc
00000110: 4897 6dbe 1475 043e 2fa7 fe3c 9577 0abe
00000120: 86d6 6fbd 0009 563d 372e 0bbe 2509 36be
00000130: 40e6 97be c381 e3bd fabe 2abe c8b5 2f3c
00000140: c0f5 e5bd fa87 cabd 0975 d5bd 3d2b 5dbe
00000150: b7a4 edbd 20c6 e23d c047 a63c 146f 983d
00000160: 66b6 6b3d b348 2fbe 70c7 b6bd c691 423d
00000170: 79c8 933c 6611 a2bd ba49 d0bd c6fe 72bd
00000180: 08a9 863d 49ef d0bc f56e ef3c 10c5 cebc
0.0670034 -0.08505214 -0.021842152 0.0034917674 -0.23322289 0.07399373 -0.06807736 -0.09122364
-0.047442444 -0.010939062 -0.040904265 0.11870821 -0.032204337 -0.17632908 0.010935798 -0.22988166
0.018459436 -0.031898618 -0.14934647 0.0634491 -0.11726051 -0.09967843 -0.042895563 -0.22027566
-0.2045519 -0.1440117 0.002266571 -0.022744283 -0.079023845 -0.16586953 0.11215767 -0.041359153
0.05446218 -0.10558742 0.023261787 -0.19632518 0.014715085 0.12414566 -0.15932095 -0.07162794
0.06712284 -0.24444021 -0.1454724 -0.085355595 -0.0306416 -0.014626861 -0.13427156 -0.005245103
0.0067101866 -0.0801168 -0.2518805 0.02766271 -0.011291148 0.063733816 -0.053718314 -0.14205053
0.066406086 -0.106916845 -0.08544238 0.07031503 -0.17783566 -0.022115096 -0.13361804 -0.011451411
-0.030970454 -0.048323527 0.054961003 -0.024193361 -0.2320224 0.12935287 0.031085579 -0.1352218
-0.058554195 0.052254677 -0.13591848 -0.17776926 -0.29667854 -0.111087345 -0.16674414 0.010724492
-0.11228514 -0.09889217 -0.10422713 -0.21598525 -0.116036825 0.110729456 0.020297885 0.074430615
0.057546996 -0.17117576 -0.089247584 0.0475023 0.018039929 -0.07913475 -0.10170312 -0.059325002
0.06575209 -0.025504725 0.029227713 -0.025240451

l2.weight f4 [100, 100]
00000000: f1ab b53d 8393 8dbd aa89 2fbd c432 b8bd
00000010: fe00 f63c 1a95 d9bd a6ba 183d 1fe4 87bd
00000020: 7acf c23c ac8a 06bd 9dd4 bf3d 877e b23c
00000030: ba54 593d fab7 d9bd a846 82bd 09be 223d
00000040: 4653 503d c838 c03c 9900 833c 9fb5 b8bd
00000050: bc56 cdbd a2dd c6bd c0dd 0d3c 4c19 94bc
00000060: 4fca 083d e340 6b3d 269d 04bd 508c 6e3c
00000070: e48f d23c ddee cf3b 5057 6bbd bda8 fcbd
00000080: c53f 88bd 28a2 ebbc d666 bdbc d5af b7bd
00000090: 512b 6dbd 5073 15bd 1d7e 55bd 0286 a2bd
000000a0: 1e03 d9b8 d8ec d03c 8820 843d 7436 03bd
000000b0: e626 a1b9 4e52 7fbd 63ca a63d 7bb1 19bd
000000c0: 6025 103b a27f 473d d9cc 8d3c d351 6abd
000000d0: bad5 abbb 6a66 c1bd 5dcd 903d 0795 f2bb
000000e0: 0941 82bb 3410 043c 78c5 66bc ebff babd
000000f0: dd0c 0e3d bd9e 893d 022d 483d 884c 8a3d
00000100: 8453 d13c f155 a33d 136f eabd b102 f2bc
00000110: ddf2 8d3c 80b8 f5ba 880c a93c 7dce 79bb
00000120: 1763 8a3d aa66 46bd d881 0abb abab 9d3c
00000130: e6e0 98bd c48e d6bc ffe2 883d ce1f 55bd
00000140: 5044 c9bd 9a7f 85bb aac3 98bc 762b 433c
00000150: 634d a3bd d0af 643c 247b e53c 2124 a13d
00000160: a6b3 a4bd 7e78 ebbd 669d 313d 250e 943d
00000170: 1879 813c 86bf 4cbd f73e c03c 9fb4 b7bd
00000180: a968 b73d bd40 803d 9c11 afbd 51ec af3d
00000190: 6bfe b63d b81a c5bd d5d7 c23d 1e12 a7bd
000001a0: a06b 453b 8645 11bd 42e6 493d dd94 22bd
000001b0: f7a9 c73d a9a8 a33d b34b 96bd e222 3c3d
000001c0: 218a a43d af74 b8bd ef7f c03d 0237 1d3d
000001d0: 9a72 5ebd 90de 703c 802e 063a ad78 98bd
000001e0: 8bce c23d c467 15bd 2cd4 15bd d82d 173c
000001f0: 8851 9dbd 3c2f 06bd 6759 c43d bdd5 8b3d
00000200: 507b 51bd a80f 77bc f054 07bd d402 e83c
00000210: 7bb3 acbd e0de 73bd cc16 e63c 93d7 b8bd
00000220: 1a3c 473d dada 5bbd 28b6 ccbc 1675 07bd
00000230: a898 b6bd cd84 a13d 4828 8bbd 526e 413d
00000240: ec83 f43c 5422 c43c ad8d 57bd 1018 4f3c
00000250: 282f 743c 9876 063c cff0 9d3d 3dc1 33bd
00000260: 325a 7b3d 2f79 b6bd 808d 53bc 70b9 10bc
00000270: 2c2e b0bc 3a94 78bd c0f7 5d3c b0d2 6dbd
00000280: df2a 843d 2288 343d d8b2 d3bc b0b1 8cbd
00000290: 6207 563d dad0 6ebd a9a4 ba3d 94b8 89bd
000002a0: 70e0 5abd afc2 923d c3db 46bd 489a 91bd
000002b0: 4da3 94bd f0d1 2d3c 1173 8b3d 46db 573d
000002c0: b417 ab3c d890 b6bc a8ff b9bd 987c ba3c
000002d0: 0845 84bd c824 e6bc 800e a2bb 1a65 aabd
000002e0: c3ed 7cbd eada 82bd 50ae 1ebd 07fd 49bd
000002f0: 0234 86bd db0b 8a3d 1be4 aabd 68fa 333c
00000300: 18e7 27bc 9717 8e3d 72ce 6a3d cae6 32bd
00000310: 837c 90bd d51f b13d e0d3 2fbd c43d 02bd
00000320: 571d cc3d 9940 663c fd11 98bd cb7c 83bd
00000330: fe40 d0ba 43ac 0dbd 9e3a 4b3d 7c2f ff3c
00000340: 0c70 bfbd 201d 9cbb 5423 89bd 46c1 653d
00000350: 90f7 41bc 80e8 98bd a036 28bb e06e 573c
00000360: 41f5 b73d 24cc 983c c713 adbd 0cc8 813c
00000370: 2393 e3bd 0929 293d c264 5e3d 4ecf a33d
00000380: 10f5 6ebd e20f 83bd d6c4 13bd 9fa7 c83d
00000390: ea34 693d 4e4a 4cbd e48f f23c 5207 1e3d
000003a0: 1b57 f9bc e07b 38bd 4e3c 243d 7317 a53c
000003b0: d950 953d 8523 31bd 2b7d 233d 846c 323c
000003c0: 6ef6 dbbc 0c5b 83bd da4a a43d 9820 85bc
000003d0: f4f5 643c 497e 43bd 4ade 3d3d ab8d a03d
000003e0: 1d32 903d 2d50 b1bd 2755 b03b a1e7 a13d
000003f0: e48c c7bd a99f c23d 6d8b cbbd 3420 b03d
0.08870686 -0.06912901 -0.042855896 -0.08994058 0.03002977 -0.10624142 0.037287377 -0.066353075
0.023780573 -0.03284709 0.09366725 0.021788849 0.053059317 -0.10630794 -0.06361133 0.039732013
0.050860666 0.023464575 0.015991496 -0.090190165 -0.10026309 -0.09710242 0.008658826 -0.018078469
0.03339606 0.057434928 -0.03237643 0.01455982 0.025703378 0.0063456134 -0.057456315 -0.12336872
-0.06652788 -0.028763846 -0.023120325 -0.08969084 -0.057902638 -0.036486924 -0.052122224 -0.07935716
-0.00010347947 0.02550356 0.06451517 -0.032034352 -0.00030737295 -0.06233435 0.08144071 -0.037522774
0.0021994933 0.048705705 0.017309593 -0.05720694 -0.005243984 -0.09443362 0.0707042 -0.0074030194
-0.003975038 0.008060504 -0.014085166 -0.09130844 0.034680236 0.0671973 0.048871048 0.067528784
0.025552519 0.079753764 -0.11446967 -0.029542299 0.01732772 -0.0018747002 0.020635858 -0.0038117461
0.06757181 -0.04843775 -0.0021134522 0.019246897 -0.07464771 -0.026191123 0.06683921 -0.052032284
-0.09827483 -0.004074049 -0.018647987 0.011912217 -0.07973745 0.013957933 0.02801282 0.07868219
-0.08042078 -0.114975914 0.043362997 0.0722926 0.015804812 -0.04998734 0.023467524 -0.089699976
0.08955509 0.06262348 -0.085482806 0.08589996 0.08935245 -0.09624237 0.09513823 -0.081577525
0.0030123964 -0.035466693 0.049291857 -0.03969275 0.09749215 0.07991154 -0.07338657 0.045931704
0.080341585 -0.09006631 0.093994014 0.038382538 -0.05430851 0.014701501 0.00051186234 -0.07444892
0.09512051 -0.03647591 -0.036579296 0.009227239 -0.076815665 -0.03275989 0.09587365 0.06827877
-0.05114299 -0.015079416 -0.033039987 0.028321661 -0.08432671 -0.059538722 0.028087042 -0.090254925
0.0486413 -0.05367551 -0.024989203 -0.033070646 -0.089158356 0.07886658 -0.067947924 0.04722435
0.029848062 0.02394215 -0.052625347 0.012640014 0.014903821 0.008206986 0.07711946 -0.04388546
0.061365314 -0.08909833 -0.012912154 -0.008833274 -0.021506391 -0.060688235 0.013547838 -0.058062255
0.064534895 0.04407514 -0.025842115 -0.06869829 0.052253135 -0.058304645 0.09113438 -0.067246586
-0.053436697 0.07166039 -0.048549425 -0.07109505 -0.0725771 0.010609135 0.068090566 0.05269935
0.020885326 -0.022285864 -0.09081966 0.022764489 -0.06458479 -0.02809371 -0.004945576 -0.08320065
-0.061750185 -0.06389411 -0.038740456 -0.04931357 -0.065528885 0.067405425 -0.08344289 0.0109849945
-0.010247968 0.06938093 0.057325788 -0.04367713 -0.07054999 0.086486496 -0.04292667 -0.031797186
0.09966534 0.014053487 -0.07425306 -0.06420287 -0.001588851 -0.03458811 0.04961645 0.031150572
-0.09347543 -0.004764214 -0.066961914 0.056092523 -0.011838809 -0.07466221 -0.0025667325 0.013148993
0.08982325 0.01865203 -0.08451038 0.01584246 -0.111120485 0.0412989 0.05429531 0.079985246
-0.05833918 -0.06399514 -0.03607639 0.09797596 0.05693523 -0.04987555 0.029609628 0.0385812
-0.030437043 -0.04504001 0.040096574 0.020152783 0.07290811 -0.043246765 0.03991429 0.01089013
-0.026850905 -0.0641385 0.08022089 -0.016250893 0.013974655 -0.047727857 0.04635457 0.07839521
0.07040808 -0.086578704 0.0053812447 0.07905508 -0.0974367 0.09503109 -0.09938703 0.08599892

l2.bias f4 [100]
00000000: a8a8 07be ae99 4e3d f415 b4bd d4ab 333c
00000010: 165e 223d 28d6 a1bd daf8 09be ed27 773d
00000020: b1f7 5cbc c9ca bc3d 2dbd 673d 1217 09bd
00000030: 3918 65bd 1268 75bd 9922 933b b7d3 78bd
00000040: 74e7 81bd 5e35 08be d5f2 88bd 0ee6 3abd
00000050: 40b4 debc 3893 e83c aaa0 2abd a01b 03be
00000060: 29e9 cebc 8f2a 36bd 2313 5abd 2070 ddbc
00000070: dfac fabd b616 c4bd 8339 1b3d 8341 d1bc
00000080: 4b3a 75bd e320 1fbc 6797 5b3d 3079 1ebd
00000090: 1e9c 113c 4c99 62bb 2241 b93c 314e 403d
000000a0: a8fd 5cbd e39f 83bd ebec dbbd 7b8d c0bd
000000b0: 73ed e8bd e03b a1bd 5254 9f39 ce43 533d
000000c0: de49 083e 8aa8 e3bc 4398 90bb 2cf6 d1bd
000000d0: 0ab9 f7bd f6b3 05be c8c2 82bd 8f38 f1bd
000000e0: a437 c03d 2064 b23c 898b 9cbd f339 0bbe
000000f0: 066c e0bd 9009 4b3d 3396 663d 863d cdbd
00000100: 50ae 21be 72c2 cebd 196b 6d3d d6d6 23bd
00000110: 483a 203d 7e2f c9bd 0fe5 aabd 57b3 3b3d
00000120: 2a88 25bd b14b 6cbb 2ec9 bcbd f897 443d
00000130: 9699 83be 5ed1 01be a61d 85bd 4787 b6bc
00000140: b303 33be b51b a5bd bbdb 503c 9db8 0bbd
00000150: 64b9 01bd 24b5 b2bd 40e0 483d bdee c7bd
00000160: f252 5abd c1f3 ae3b 305e 513d 5ccc 9ebd
00000170: c8f4 a1bd a426 bcbc b576 dcbc f842 22be
00000180: 04cc f93c b528 0bbe 8cb8 83bc 4eaa b13b
-0.13247931 0.05043953 -0.0879325 0.01096626 0.03964051 -0.07902175 -0.13473836 0.06034081
-0.013486789 0.09218366 0.056576896 -0.033469267 -0.055931304 -0.059913702 0.0044902083 -0.060748782
-0.06342974 -0.13301608 -0.066869415 -0.045629553 -0.02718556 0.028390512 -0.041657127 -0.12803507
-0.025257664 -0.04447418 -0.053240906 -0.027031004 -0.12240004 -0.09574644 0.037896644 -0.025543934
-0.059870046 -0.009712431 0.053611185 -0.038689792 0.008887319 -0.0034576235 0.022614066 0.04694957
-0.053952843 -0.0642698 -0.10738548 -0.09401985 -0.11373415 -0.078727484 0.00030389667 0.051578335
0.13309428 -0.027790327 -0.0044126823 -0.10252032 -0.1209584 -0.13056931 -0.06384808 -0.11778366
0.093856126 0.021776259 -0.07643802 -0.13596325 -0.10958104 0.049569666 0.056295585 -0.100215
-0.15789151 -0.10095681 0.057963464 -0.039999805 0.03911808 -0.098235115 -0.08344471 0.04582533
-0.04041306 -0.0036055858 -0.092180595 0.04799649 -0.25703114 -0.12677523 -0.064997956 -0.022281302
-0.1748188 -0.08061925 0.0127477 -0.034111608 -0.031670943 -0.08725956 0.049041986 -0.097623326
-0.05330176 0.0053391163 0.051115215 -0.07753822 -0.079080164 -0.022967644 -0.026912073 -0.15845859
0.03049279 -0.13589747 -0.01607921 0.005421913

l3.weight f4 [5, 100]
00000000: e8b5 663d a98f bc3d 59ff 143b 989c d3bc
00000010: c474 86bd e0b2 a0bd a728 1c3b c4d3 55bc
00000020: 14b5 2e3c 3efa f4bc d3a6 1bbd c874 8cbd
00000030: d607 9b3d 7133 a73d a389 28bd ef3a 3b3c
00000040: d457 a33d 15c9 823d 7de7 34bd 2973 5d3d
00000050: b1b1 6b3c bb3a 66bd ffb3 cf3d e8f1 913c
00000060: aafd c1bb 1212 4dbb 2b93 4cbd f03b 773c
00000070: e3d5 973d bcc5 c9bb ccd8 5f3d 11df 1dbd
00000080: a854 513d 9501 893d 7fed 4b3d 25d7 eb3a
00000090: 26df 473d 31e1 64bd b952 373e 0589 593d
000000a0: 9882 603d da2a c1bc 0f98 77bd 1bdb d93c
000000b0: e081 7d3d 1232 90bc bbc8 2a3d d700 d8bc
000000c0: e32a 9ebd a497 4a3d 6920 39bd 5341 00bc
000000d0: 34b3 ea3c 05f2 c4bc 6db5 84bc 15b4 f13d
000000e0: 9bac 433d 58d1 36bc 3750 2b3c 9eb2 a43d
000000f0: 49f1 8ebc af7c 59bd 8a09 993a 6f40 94bd
00000100: 33a5 11bd 7337 983d 343e f43d 7a2e 01bd
00000110: fe4e b1bd 8a53 003c 0b46 6d3d b88f b5bc
00000120: ec52 a93b f0d8 f03c 1fec ddbc abf6 d43d
00000130: 7dbb 133d 396a 9a3d 2783 2bbd 4042 483d
00000140: 326e 8f3b 5a6e 853c 2a4a 293d 8f7a 033e
00000150: 4d1d c7bd cf1f 223d 7abd 8d3d 6d28 a73d
00000160: e40a c73c 8f7a 59bc 9936 5cbd e1f8 503d
00000170: d990 243c edd0 843b ba3e 0abc 8db3 633d
00000180: a7c7 c1bd bb7b 5ebd 103f 4dbd eb11 63bd
00000190: 9471 36bd a34b 29bd b8c9 bf3d ef8b 583d
000001a0: 0005 8e3d 91be 1fbd 78e3 c9bd 52d4 ee3a
000001b0: 3f27 9d3d 4293 87bd fd11 0bbd 0c24 24ba
000001c0: 868f 87bc 72d9 72bd c04c 05bc 8c6d c73b
000001d0: cdc8 413d 108b fe3d e298 613d 9158 993d
000001e0: 999b 783c de91 653d 750b 02bd 91f9 f0bc
000001f0: 4ac5 a33d 152f e1bd f011 0dbd 8804 a5bd
00000200: 4d38 3bbd 8862 2b3d 773b 22bd 0704 bf3c
00000210: c1c7 37bc 3b27 6dbd 7850 96bc ae8f 843d
00000220: af29 003d 1d8e af3c 051f a5bb 7e1d 98bc
00000230: b700 a8bc 4b9e c7bc 2f27 babc fc7b 50bc
00000240: a35a 56bd 6790 36bd e2da 95bb 2801 ccbc
00000250: cf19 54bd cf7c 24bd 8733 7a3c e96a 12bd
00000260: 0ce2 8c3b b650 523d 3885 2dbd 1dbe 913c
00000270: 4c69 85bc 1d13 8ebd e786 07bc f2d1 f5bb
00000280: 8b4c e83d 3046 23bd c7aa c7bc 097c 14bd
00000290: d5d9 0dbd 3547 743c fb6b 0cbd 7517 bdbc
000002a0: c36b f63c 0e73 d5bc 75e5 5cbd 3e6c c13d
000002b0: 8f18 1c3d 5b0d 333d 7c52 2bbd 8888 52bd
000002c0: b59e 403d eb4b 5e3d 68f7 ba3c 2d0e 263d
000002d0: 002d 363d 8419 84bd e60b acbc 36ee 10bd
000002e0: 7241 2c3d 6462 cabc 80d0 fd3d be03 bf3c
000002f0: e902 7d3d b967 143d fd0e 0f3d 080a 493c
00000300: 89c1 263d 5673 6c3d dd01 1d3d 1c1c 0c3d
00000310: 5265 503d 2186 b13d be81 303d 6fc6 a23d
00000320: 1e57 fdbc e0a1 ac3c 280a eb3c ca39 ad3d
00000330: 166f ecbc c7fe ab3b e2cb 1ebd b442 793d
00000340: 24f4 5d3a 6811 773d 40d3 59bc d846 17bc
00000350: a84d 16bb 42da 59bd 285f 31bc a7e0 4cbc
00000360: 76cb 273c ba8a fc3c 45f6 b0bd 245e 683d
00000370: cb5f 63bd bf3a 15bd 88d5 eebc a23f f8bc
00000380: fbad 94bd 2da7 733d 12e1 45bd 604a b0bb
00000390: 6450 033d 17a8 67bd 9caf aa3c 5eac 143d
000003a0: 37dd 0fbd 2504 d03c b686 69bd 6d76 bb3d
000003b0: d846 fbba 63a9 8cbd 44f9 6a3d ec0f a3bc
000003c0: 4f3c 42bd caf7 f53c d4e0 183c 40e4 09bb
000003d0: 0b69 eabb ca0f 6fbd b0be 2fbd 9658 2cbc
000003e0: 3fc6 0bbd e2d8 803d 4081 51bd c114 363c
000003f0: ff71 c73c b119 d13c 8f50 01bd 012f 283d
0.056325823 0.092070885 0.0022735207 -0.025831506 -0.0656524 -0.07846618 0.0023827942 -0.013050977
0.01066329 -0.029904481 -0.038000893 -0.06858212 0.07569854 0.081641085 -0.041146886 0.011427625
0.07975736 0.063860096 -0.044166077 0.054064903 0.014385627 -0.056208353 0.101417534 0.017815545
-0.0059201317 -0.0031291288 -0.049945038 0.015089974 0.074138425 -0.006157605 0.054650113 -0.03854281
0.051106125 0.06689755 0.04978704 0.0017993195 0.048796795 -0.05587882 0.1790265 0.053109188
0.054812044 -0.023580004 -0.06044775 0.026593735 0.061891437 -0.017602 0.041695338 -0.026367588
-0.07723024 0.049461022 -0.045196924 -0.0078280745 0.028649904 -0.024041185 -0.016199792 0.11801926
0.04777203 -0.01115831 0.010456136 0.08041881 -0.017449038 -0.053097423 0.0011675816 -0.07238852
-0.035557937 0.07432451 0.11925927 -0.031538464 -0.08657645 0.007832417 0.057928126 -0.022163257
0.0051673558 0.029400319 -0.02709013 0.10398611 0.036067475 0.075397916 -0.041873123 0.048891306
0.00437715 0.016287971 0.041330494 0.12839721 -0.097223856 0.039581116 0.069209054 0.081620075
0.024297185 -0.013273849 -0.053763006 0.0510186 0.0100443 0.004053226 -0.008437807 0.055591155
-0.09461909 -0.054317217 -0.05010897 -0.05543701 -0.04454191 -0.0413319 0.09364647 0.052867826
0.069345474 -0.039000098 -0.09857839 0.0018221235 0.07673501 -0.06619884 -0.0339527 -0.0006261475
-0.01654793 -0.059289403 -0.008135974 0.006086057 0.04731064 0.12428868 0.05507744 0.07487596
0.015173816 0.056047313 -0.031749208 -0.029415878 0.07996614 -0.10995308 -0.034440935 -0.08057505
-0.04570799 0.041842014 -0.03960749 0.02331735 -0.011217059 -0.05789874 -0.018348917 0.06472717
0.031289753 0.02143007 -0.005039098 -0.01856875 -0.020508153 -0.024367472 -0.022723762 -0.012724873
-0.05233253 -0.044571307 -0.004573212 -0.024902895 -0.051782425 -0.04015809 0.015271074 -0.03574649
0.004299408 0.051346503 -0.042363375 0.017790848 -0.016285561 -0.06937239 -0.008271909 -0.007501834
0.113427244 -0.039861858 -0.024373425 -0.0362511 -0.03463157 0.014909555 -0.034282666 -0.023082474
0.030080682 -0.026055839 -0.053929765 0.09444474 0.03810936 0.04371391 -0.04182671 -0.051399738
0.047026355 0.05427162 0.02282305 0.040540863 0.04447651 -0.06450179 -0.021001767 -0.035383426
0.0420546 -0.02470512 0.12393284 0.023317214 0.061770353 0.03623173 0.034926403 0.012270458
0.040711913 0.05772718 0.038331855 0.034206495 0.050877877 0.08668161 0.04309248 0.079480045
-0.03092533 0.021073282 0.028691366 0.08458288 -0.028861564 0.0052488777 -0.038768657 0.06085463
0.0008466861 0.060319334 -0.013294995 -0.009233199 -0.002293447 -0.053186662 -0.01082591 -0.012504733
0.01024138 0.030827869 -0.08640722 0.056730404 -0.055511277 -0.036432978 -0.029154554 -0.03030378
-0.07259747 0.059485603 -0.048310347 -0.00537996 0.03205909 -0.056556787 0.02083569 0.036297195
-0.035123076 0.025392601 -0.057013236 0.09153447 -0.0019170893 -0.068682455 0.057366624 -0.019905053
-0.047420796 0.030025382 0.009330947 -0.0021040589 -0.0071536354 -0.058364667 -0.042906463 -0.010519167
-0.03412461 0.06291367 -0.051148653 0.011113347 0.02434635 0.025524946 -0.031570967 0.04106045

l3.bias f4 [5]
00000000: 037f d6bb a202 d9bb f76d d8ba 4432 83ba
00000010: c58d bf3b
-0.0065459027 -0.0066226283 -0.0016512264 -0.0010009487 0.0058457577
